<?xml version="1.0"?>
<net name="Model0" version="11">
	<layers>
		<layer id="0" name="x" type="Parameter" version="opset1">
			<data shape="1,3,320,320" element_type="f32" />
			<output>
				<port id="0" precision="FP32" names="x">
					<dim>1</dim>
					<dim>3</dim>
					<dim>320</dim>
					<dim>320</dim>
				</port>
			</output>
		</layer>
		<layer id="1" name="__module.model.21/aten::unsqueeze/Unsqueeze" type="Const" version="opset1">
			<data element_type="f32" shape="1, 2, 2100" offset="0" size="16800" />
			<output>
				<port id="0" precision="FP32" names="1929,anchor_points">
					<dim>1</dim>
					<dim>2</dim>
					<dim>2100</dim>
				</port>
			</output>
		</layer>
		<layer id="2" name="x/fq_output_0/input_low" type="Const" version="opset1">
			<data element_type="f32" shape="" offset="16800" size="4" />
			<output>
				<port id="0" precision="FP32" />
			</output>
		</layer>
		<layer id="3" name="x/fq_output_0/input_high" type="Const" version="opset1">
			<data element_type="f32" shape="" offset="16804" size="4" />
			<output>
				<port id="0" precision="FP32" />
			</output>
		</layer>
		<layer id="4" name="x/fq_output_0/output_low" type="Const" version="opset1">
			<data element_type="f32" shape="" offset="16800" size="4" />
			<output>
				<port id="0" precision="FP32" />
			</output>
		</layer>
		<layer id="5" name="x/fq_output_0/output_high" type="Const" version="opset1">
			<data element_type="f32" shape="" offset="16804" size="4" />
			<output>
				<port id="0" precision="FP32" />
			</output>
		</layer>
		<layer id="6" name="x/fq_output_0" type="FakeQuantize" version="opset1">
			<data levels="256" auto_broadcast="numpy" />
			<input>
				<port id="0" precision="FP32">
					<dim>1</dim>
					<dim>3</dim>
					<dim>320</dim>
					<dim>320</dim>
				</port>
				<port id="1" precision="FP32" />
				<port id="2" precision="FP32" />
				<port id="3" precision="FP32" />
				<port id="4" precision="FP32" />
			</input>
			<output>
				<port id="5" precision="FP32">
					<dim>1</dim>
					<dim>3</dim>
					<dim>320</dim>
					<dim>320</dim>
				</port>
			</output>
		</layer>
		<layer id="7" name="Constant_741785" type="Const" version="opset1">
			<data element_type="i8" shape="16, 3, 3, 3" offset="16808" size="432" />
			<output>
				<port id="0" precision="I8">
					<dim>16</dim>
					<dim>3</dim>
					<dim>3</dim>
					<dim>3</dim>
				</port>
			</output>
		</layer>
		<layer id="8" name="Convert_741786" type="Convert" version="opset1">
			<data destination_type="f32" />
			<input>
				<port id="0" precision="I8">
					<dim>16</dim>
					<dim>3</dim>
					<dim>3</dim>
					<dim>3</dim>
				</port>
			</input>
			<output>
				<port id="1" precision="FP32">
					<dim>16</dim>
					<dim>3</dim>
					<dim>3</dim>
					<dim>3</dim>
				</port>
			</output>
		</layer>
		<layer id="9" name="Constant_741787" type="Const" version="opset1">
			<data element_type="f32" shape="16, 1, 1, 1" offset="17240" size="64" />
			<output>
				<port id="0" precision="FP32">
					<dim>16</dim>
					<dim>1</dim>
					<dim>1</dim>
					<dim>1</dim>
				</port>
			</output>
		</layer>
		<layer id="10" name="__module.model.0.conv/aten::_convolution/Convolution/fq_weights_1" type="Multiply" version="opset1">
			<data auto_broadcast="numpy" />
			<input>
				<port id="0" precision="FP32">
					<dim>16</dim>
					<dim>3</dim>
					<dim>3</dim>
					<dim>3</dim>
				</port>
				<port id="1" precision="FP32">
					<dim>16</dim>
					<dim>1</dim>
					<dim>1</dim>
					<dim>1</dim>
				</port>
			</input>
			<output>
				<port id="2" precision="FP32">
					<dim>16</dim>
					<dim>3</dim>
					<dim>3</dim>
					<dim>3</dim>
				</port>
			</output>
		</layer>
		<layer id="11" name="__module.model.0.conv/aten::_convolution/Convolution" type="Convolution" version="opset1">
			<data strides="2, 2" dilations="1, 1" pads_begin="1, 1" pads_end="1, 1" auto_pad="explicit" />
			<input>
				<port id="0" precision="FP32">
					<dim>1</dim>
					<dim>3</dim>
					<dim>320</dim>
					<dim>320</dim>
				</port>
				<port id="1" precision="FP32">
					<dim>16</dim>
					<dim>3</dim>
					<dim>3</dim>
					<dim>3</dim>
				</port>
			</input>
			<output>
				<port id="2" precision="FP32">
					<dim>1</dim>
					<dim>16</dim>
					<dim>160</dim>
					<dim>160</dim>
				</port>
			</output>
		</layer>
		<layer id="12" name="__module.model.0.conv/aten::_convolution/Reshape" type="Const" version="opset1">
			<data element_type="f32" shape="1, 16, 1, 1" offset="17304" size="64" />
			<output>
				<port id="0" precision="FP32">
					<dim>1</dim>
					<dim>16</dim>
					<dim>1</dim>
					<dim>1</dim>
				</port>
			</output>
		</layer>
		<layer id="13" name="__module.model.0.conv/aten::_convolution/Add" type="Add" version="opset1">
			<data auto_broadcast="numpy" />
			<input>
				<port id="0" precision="FP32">
					<dim>1</dim>
					<dim>16</dim>
					<dim>160</dim>
					<dim>160</dim>
				</port>
				<port id="1" precision="FP32">
					<dim>1</dim>
					<dim>16</dim>
					<dim>1</dim>
					<dim>1</dim>
				</port>
			</input>
			<output>
				<port id="2" precision="FP32" names="87_1">
					<dim>1</dim>
					<dim>16</dim>
					<dim>160</dim>
					<dim>160</dim>
				</port>
			</output>
		</layer>
		<layer id="14" name="__module.model.21.cv3.2.1.1.act/aten::silu_/Swish" type="Swish" version="opset4">
			<input>
				<port id="0" precision="FP32">
					<dim>1</dim>
					<dim>16</dim>
					<dim>160</dim>
					<dim>160</dim>
				</port>
			</input>
			<output>
				<port id="1" precision="FP32" names="87,input.1">
					<dim>1</dim>
					<dim>16</dim>
					<dim>160</dim>
					<dim>160</dim>
				</port>
			</output>
		</layer>
		<layer id="15" name="__module.model.21.cv3.2.1.1.act/aten::silu_/Swish/fq_output_0/input_low" type="Const" version="opset1">
			<data element_type="f32" shape="" offset="17368" size="4" />
			<output>
				<port id="0" precision="FP32" />
			</output>
		</layer>
		<layer id="16" name="__module.model.21.cv3.2.1.1.act/aten::silu_/Swish/fq_output_0/input_high" type="Const" version="opset1">
			<data element_type="f32" shape="" offset="17372" size="4" />
			<output>
				<port id="0" precision="FP32" />
			</output>
		</layer>
		<layer id="17" name="__module.model.21.cv3.2.1.1.act/aten::silu_/Swish/fq_output_0/output_low" type="Const" version="opset1">
			<data element_type="f32" shape="" offset="17368" size="4" />
			<output>
				<port id="0" precision="FP32" />
			</output>
		</layer>
		<layer id="18" name="__module.model.21.cv3.2.1.1.act/aten::silu_/Swish/fq_output_0/output_high" type="Const" version="opset1">
			<data element_type="f32" shape="" offset="17372" size="4" />
			<output>
				<port id="0" precision="FP32" />
			</output>
		</layer>
		<layer id="19" name="__module.model.21.cv3.2.1.1.act/aten::silu_/Swish/fq_output_0" type="FakeQuantize" version="opset1">
			<data levels="256" auto_broadcast="numpy" />
			<input>
				<port id="0" precision="FP32">
					<dim>1</dim>
					<dim>16</dim>
					<dim>160</dim>
					<dim>160</dim>
				</port>
				<port id="1" precision="FP32" />
				<port id="2" precision="FP32" />
				<port id="3" precision="FP32" />
				<port id="4" precision="FP32" />
			</input>
			<output>
				<port id="5" precision="FP32">
					<dim>1</dim>
					<dim>16</dim>
					<dim>160</dim>
					<dim>160</dim>
				</port>
			</output>
		</layer>
		<layer id="20" name="Constant_741789" type="Const" version="opset1">
			<data element_type="i8" shape="32, 16, 3, 3" offset="17376" size="4608" />
			<output>
				<port id="0" precision="I8">
					<dim>32</dim>
					<dim>16</dim>
					<dim>3</dim>
					<dim>3</dim>
				</port>
			</output>
		</layer>
		<layer id="21" name="Convert_741790" type="Convert" version="opset1">
			<data destination_type="f32" />
			<input>
				<port id="0" precision="I8">
					<dim>32</dim>
					<dim>16</dim>
					<dim>3</dim>
					<dim>3</dim>
				</port>
			</input>
			<output>
				<port id="1" precision="FP32">
					<dim>32</dim>
					<dim>16</dim>
					<dim>3</dim>
					<dim>3</dim>
				</port>
			</output>
		</layer>
		<layer id="22" name="Constant_741791" type="Const" version="opset1">
			<data element_type="f32" shape="32, 1, 1, 1" offset="21984" size="128" />
			<output>
				<port id="0" precision="FP32">
					<dim>32</dim>
					<dim>1</dim>
					<dim>1</dim>
					<dim>1</dim>
				</port>
			</output>
		</layer>
		<layer id="23" name="__module.model.1.conv/aten::_convolution/Convolution/fq_weights_1" type="Multiply" version="opset1">
			<data auto_broadcast="numpy" />
			<input>
				<port id="0" precision="FP32">
					<dim>32</dim>
					<dim>16</dim>
					<dim>3</dim>
					<dim>3</dim>
				</port>
				<port id="1" precision="FP32">
					<dim>32</dim>
					<dim>1</dim>
					<dim>1</dim>
					<dim>1</dim>
				</port>
			</input>
			<output>
				<port id="2" precision="FP32">
					<dim>32</dim>
					<dim>16</dim>
					<dim>3</dim>
					<dim>3</dim>
				</port>
			</output>
		</layer>
		<layer id="24" name="__module.model.1.conv/aten::_convolution/Convolution" type="Convolution" version="opset1">
			<data strides="2, 2" dilations="1, 1" pads_begin="1, 1" pads_end="1, 1" auto_pad="explicit" />
			<input>
				<port id="0" precision="FP32">
					<dim>1</dim>
					<dim>16</dim>
					<dim>160</dim>
					<dim>160</dim>
				</port>
				<port id="1" precision="FP32">
					<dim>32</dim>
					<dim>16</dim>
					<dim>3</dim>
					<dim>3</dim>
				</port>
			</input>
			<output>
				<port id="2" precision="FP32">
					<dim>1</dim>
					<dim>32</dim>
					<dim>80</dim>
					<dim>80</dim>
				</port>
			</output>
		</layer>
		<layer id="25" name="__module.model.1.conv/aten::_convolution/Reshape" type="Const" version="opset1">
			<data element_type="f32" shape="1, 32, 1, 1" offset="22112" size="128" />
			<output>
				<port id="0" precision="FP32">
					<dim>1</dim>
					<dim>32</dim>
					<dim>1</dim>
					<dim>1</dim>
				</port>
			</output>
		</layer>
		<layer id="26" name="__module.model.1.conv/aten::_convolution/Add" type="Add" version="opset1">
			<data auto_broadcast="numpy" />
			<input>
				<port id="0" precision="FP32">
					<dim>1</dim>
					<dim>32</dim>
					<dim>80</dim>
					<dim>80</dim>
				</port>
				<port id="1" precision="FP32">
					<dim>1</dim>
					<dim>32</dim>
					<dim>1</dim>
					<dim>1</dim>
				</port>
			</input>
			<output>
				<port id="2" precision="FP32" names="101_1">
					<dim>1</dim>
					<dim>32</dim>
					<dim>80</dim>
					<dim>80</dim>
				</port>
			</output>
		</layer>
		<layer id="27" name="__module.model.21.cv3.2.1.1.act/aten::silu_/Swish_1" type="Swish" version="opset4">
			<input>
				<port id="0" precision="FP32">
					<dim>1</dim>
					<dim>32</dim>
					<dim>80</dim>
					<dim>80</dim>
				</port>
			</input>
			<output>
				<port id="1" precision="FP32" names="101,input.5">
					<dim>1</dim>
					<dim>32</dim>
					<dim>80</dim>
					<dim>80</dim>
				</port>
			</output>
		</layer>
		<layer id="28" name="__module.model.21.cv3.2.1.1.act/aten::silu_/Swish_1/fq_output_0/input_low" type="Const" version="opset1">
			<data element_type="f32" shape="" offset="17368" size="4" />
			<output>
				<port id="0" precision="FP32" />
			</output>
		</layer>
		<layer id="29" name="__module.model.21.cv3.2.1.1.act/aten::silu_/Swish_1/fq_output_0/input_high" type="Const" version="opset1">
			<data element_type="f32" shape="" offset="22240" size="4" />
			<output>
				<port id="0" precision="FP32" />
			</output>
		</layer>
		<layer id="30" name="__module.model.21.cv3.2.1.1.act/aten::silu_/Swish_1/fq_output_0/output_low" type="Const" version="opset1">
			<data element_type="f32" shape="" offset="17368" size="4" />
			<output>
				<port id="0" precision="FP32" />
			</output>
		</layer>
		<layer id="31" name="__module.model.21.cv3.2.1.1.act/aten::silu_/Swish_1/fq_output_0/output_high" type="Const" version="opset1">
			<data element_type="f32" shape="" offset="22240" size="4" />
			<output>
				<port id="0" precision="FP32" />
			</output>
		</layer>
		<layer id="32" name="__module.model.21.cv3.2.1.1.act/aten::silu_/Swish_1/fq_output_0" type="FakeQuantize" version="opset1">
			<data levels="256" auto_broadcast="numpy" />
			<input>
				<port id="0" precision="FP32">
					<dim>1</dim>
					<dim>32</dim>
					<dim>80</dim>
					<dim>80</dim>
				</port>
				<port id="1" precision="FP32" />
				<port id="2" precision="FP32" />
				<port id="3" precision="FP32" />
				<port id="4" precision="FP32" />
			</input>
			<output>
				<port id="5" precision="FP32">
					<dim>1</dim>
					<dim>32</dim>
					<dim>80</dim>
					<dim>80</dim>
				</port>
			</output>
		</layer>
		<layer id="33" name="Constant_741793" type="Const" version="opset1">
			<data element_type="i8" shape="32, 32, 1, 1" offset="22244" size="1024" />
			<output>
				<port id="0" precision="I8">
					<dim>32</dim>
					<dim>32</dim>
					<dim>1</dim>
					<dim>1</dim>
				</port>
			</output>
		</layer>
		<layer id="34" name="Convert_741794" type="Convert" version="opset1">
			<data destination_type="f32" />
			<input>
				<port id="0" precision="I8">
					<dim>32</dim>
					<dim>32</dim>
					<dim>1</dim>
					<dim>1</dim>
				</port>
			</input>
			<output>
				<port id="1" precision="FP32">
					<dim>32</dim>
					<dim>32</dim>
					<dim>1</dim>
					<dim>1</dim>
				</port>
			</output>
		</layer>
		<layer id="35" name="Constant_741795" type="Const" version="opset1">
			<data element_type="f32" shape="32, 1, 1, 1" offset="23268" size="128" />
			<output>
				<port id="0" precision="FP32">
					<dim>32</dim>
					<dim>1</dim>
					<dim>1</dim>
					<dim>1</dim>
				</port>
			</output>
		</layer>
		<layer id="36" name="__module.model.2.cv1.conv/aten::_convolution/Convolution/fq_weights_1" type="Multiply" version="opset1">
			<data auto_broadcast="numpy" />
			<input>
				<port id="0" precision="FP32">
					<dim>32</dim>
					<dim>32</dim>
					<dim>1</dim>
					<dim>1</dim>
				</port>
				<port id="1" precision="FP32">
					<dim>32</dim>
					<dim>1</dim>
					<dim>1</dim>
					<dim>1</dim>
				</port>
			</input>
			<output>
				<port id="2" precision="FP32">
					<dim>32</dim>
					<dim>32</dim>
					<dim>1</dim>
					<dim>1</dim>
				</port>
			</output>
		</layer>
		<layer id="37" name="__module.model.2.cv1.conv/aten::_convolution/Convolution" type="Convolution" version="opset1">
			<data strides="1, 1" dilations="1, 1" pads_begin="0, 0" pads_end="0, 0" auto_pad="explicit" />
			<input>
				<port id="0" precision="FP32">
					<dim>1</dim>
					<dim>32</dim>
					<dim>80</dim>
					<dim>80</dim>
				</port>
				<port id="1" precision="FP32">
					<dim>32</dim>
					<dim>32</dim>
					<dim>1</dim>
					<dim>1</dim>
				</port>
			</input>
			<output>
				<port id="2" precision="FP32">
					<dim>1</dim>
					<dim>32</dim>
					<dim>80</dim>
					<dim>80</dim>
				</port>
			</output>
		</layer>
		<layer id="38" name="__module.model.2.cv1.conv/aten::_convolution/Reshape" type="Const" version="opset1">
			<data element_type="f32" shape="1, 32, 1, 1" offset="23396" size="128" />
			<output>
				<port id="0" precision="FP32">
					<dim>1</dim>
					<dim>32</dim>
					<dim>1</dim>
					<dim>1</dim>
				</port>
			</output>
		</layer>
		<layer id="39" name="__module.model.2.cv1.conv/aten::_convolution/Add" type="Add" version="opset1">
			<data auto_broadcast="numpy" />
			<input>
				<port id="0" precision="FP32">
					<dim>1</dim>
					<dim>32</dim>
					<dim>80</dim>
					<dim>80</dim>
				</port>
				<port id="1" precision="FP32">
					<dim>1</dim>
					<dim>32</dim>
					<dim>1</dim>
					<dim>1</dim>
				</port>
			</input>
			<output>
				<port id="2" precision="FP32" names="119_1">
					<dim>1</dim>
					<dim>32</dim>
					<dim>80</dim>
					<dim>80</dim>
				</port>
			</output>
		</layer>
		<layer id="40" name="__module.model.21.cv3.2.1.1.act/aten::silu_/Swish_2" type="Swish" version="opset4">
			<input>
				<port id="0" precision="FP32">
					<dim>1</dim>
					<dim>32</dim>
					<dim>80</dim>
					<dim>80</dim>
				</port>
			</input>
			<output>
				<port id="1" precision="FP32" names="119,input.9">
					<dim>1</dim>
					<dim>32</dim>
					<dim>80</dim>
					<dim>80</dim>
				</port>
			</output>
		</layer>
		<layer id="41" name="__module.model.21.cv3.2.1.1.act/aten::silu_/Swish_2/fq_output_0/input_low" type="Const" version="opset1">
			<data element_type="f32" shape="" offset="23524" size="4" />
			<output>
				<port id="0" precision="FP32" />
			</output>
		</layer>
		<layer id="42" name="__module.model.21.cv3.2.1.1.act/aten::silu_/Swish_2/fq_output_0/input_high" type="Const" version="opset1">
			<data element_type="f32" shape="" offset="23528" size="4" />
			<output>
				<port id="0" precision="FP32" />
			</output>
		</layer>
		<layer id="43" name="__module.model.21.cv3.2.1.1.act/aten::silu_/Swish_2/fq_output_0/output_low" type="Const" version="opset1">
			<data element_type="f32" shape="" offset="23524" size="4" />
			<output>
				<port id="0" precision="FP32" />
			</output>
		</layer>
		<layer id="44" name="__module.model.21.cv3.2.1.1.act/aten::silu_/Swish_2/fq_output_0/output_high" type="Const" version="opset1">
			<data element_type="f32" shape="" offset="23528" size="4" />
			<output>
				<port id="0" precision="FP32" />
			</output>
		</layer>
		<layer id="45" name="__module.model.21.cv3.2.1.1.act/aten::silu_/Swish_2/fq_output_0" type="FakeQuantize" version="opset1">
			<data levels="256" auto_broadcast="numpy" />
			<input>
				<port id="0" precision="FP32">
					<dim>1</dim>
					<dim>32</dim>
					<dim>80</dim>
					<dim>80</dim>
				</port>
				<port id="1" precision="FP32" />
				<port id="2" precision="FP32" />
				<port id="3" precision="FP32" />
				<port id="4" precision="FP32" />
			</input>
			<output>
				<port id="5" precision="FP32">
					<dim>1</dim>
					<dim>32</dim>
					<dim>80</dim>
					<dim>80</dim>
				</port>
			</output>
		</layer>
		<layer id="46" name="107" type="Const" version="opset1">
			<data element_type="i64" shape="" offset="23532" size="8" />
			<output>
				<port id="0" precision="I64" names="107" />
			</output>
		</layer>
		<layer id="47" name="Constant_212" type="Const" version="opset1">
			<data element_type="i64" shape="2" offset="23540" size="16" />
			<output>
				<port id="0" precision="I64" names="121">
					<dim>2</dim>
				</port>
			</output>
		</layer>
		<layer id="48" name="__module.model.2/prim::ListUnpack" type="VariadicSplit" version="opset1">
			<input>
				<port id="0" precision="FP32">
					<dim>1</dim>
					<dim>32</dim>
					<dim>80</dim>
					<dim>80</dim>
				</port>
				<port id="1" precision="I64" />
				<port id="2" precision="I64">
					<dim>2</dim>
				</port>
			</input>
			<output>
				<port id="3" precision="FP32" names="123">
					<dim>1</dim>
					<dim>16</dim>
					<dim>80</dim>
					<dim>80</dim>
				</port>
				<port id="4" precision="FP32" names="124,input.11">
					<dim>1</dim>
					<dim>16</dim>
					<dim>80</dim>
					<dim>80</dim>
				</port>
			</output>
		</layer>
		<layer id="49" name="Constant_741797" type="Const" version="opset1">
			<data element_type="i8" shape="8, 16, 3, 3" offset="23556" size="1152" />
			<output>
				<port id="0" precision="I8">
					<dim>8</dim>
					<dim>16</dim>
					<dim>3</dim>
					<dim>3</dim>
				</port>
			</output>
		</layer>
		<layer id="50" name="Convert_741798" type="Convert" version="opset1">
			<data destination_type="f32" />
			<input>
				<port id="0" precision="I8">
					<dim>8</dim>
					<dim>16</dim>
					<dim>3</dim>
					<dim>3</dim>
				</port>
			</input>
			<output>
				<port id="1" precision="FP32">
					<dim>8</dim>
					<dim>16</dim>
					<dim>3</dim>
					<dim>3</dim>
				</port>
			</output>
		</layer>
		<layer id="51" name="Constant_741799" type="Const" version="opset1">
			<data element_type="f32" shape="8, 1, 1, 1" offset="24708" size="32" />
			<output>
				<port id="0" precision="FP32">
					<dim>8</dim>
					<dim>1</dim>
					<dim>1</dim>
					<dim>1</dim>
				</port>
			</output>
		</layer>
		<layer id="52" name="__module.model.2.m.0.cv1.conv/aten::_convolution/Convolution/fq_weights_1" type="Multiply" version="opset1">
			<data auto_broadcast="numpy" />
			<input>
				<port id="0" precision="FP32">
					<dim>8</dim>
					<dim>16</dim>
					<dim>3</dim>
					<dim>3</dim>
				</port>
				<port id="1" precision="FP32">
					<dim>8</dim>
					<dim>1</dim>
					<dim>1</dim>
					<dim>1</dim>
				</port>
			</input>
			<output>
				<port id="2" precision="FP32">
					<dim>8</dim>
					<dim>16</dim>
					<dim>3</dim>
					<dim>3</dim>
				</port>
			</output>
		</layer>
		<layer id="53" name="__module.model.2.m.0.cv1.conv/aten::_convolution/Convolution" type="Convolution" version="opset1">
			<data strides="1, 1" dilations="1, 1" pads_begin="1, 1" pads_end="1, 1" auto_pad="explicit" />
			<input>
				<port id="0" precision="FP32">
					<dim>1</dim>
					<dim>16</dim>
					<dim>80</dim>
					<dim>80</dim>
				</port>
				<port id="1" precision="FP32">
					<dim>8</dim>
					<dim>16</dim>
					<dim>3</dim>
					<dim>3</dim>
				</port>
			</input>
			<output>
				<port id="2" precision="FP32">
					<dim>1</dim>
					<dim>8</dim>
					<dim>80</dim>
					<dim>80</dim>
				</port>
			</output>
		</layer>
		<layer id="54" name="__module.model.2.m.0.cv1.conv/aten::_convolution/Reshape" type="Const" version="opset1">
			<data element_type="f32" shape="1, 8, 1, 1" offset="24740" size="32" />
			<output>
				<port id="0" precision="FP32">
					<dim>1</dim>
					<dim>8</dim>
					<dim>1</dim>
					<dim>1</dim>
				</port>
			</output>
		</layer>
		<layer id="55" name="__module.model.2.m.0.cv1.conv/aten::_convolution/Add" type="Add" version="opset1">
			<data auto_broadcast="numpy" />
			<input>
				<port id="0" precision="FP32">
					<dim>1</dim>
					<dim>8</dim>
					<dim>80</dim>
					<dim>80</dim>
				</port>
				<port id="1" precision="FP32">
					<dim>1</dim>
					<dim>8</dim>
					<dim>1</dim>
					<dim>1</dim>
				</port>
			</input>
			<output>
				<port id="2" precision="FP32" names="134_1">
					<dim>1</dim>
					<dim>8</dim>
					<dim>80</dim>
					<dim>80</dim>
				</port>
			</output>
		</layer>
		<layer id="56" name="__module.model.21.cv3.2.1.1.act/aten::silu_/Swish_3" type="Swish" version="opset4">
			<input>
				<port id="0" precision="FP32">
					<dim>1</dim>
					<dim>8</dim>
					<dim>80</dim>
					<dim>80</dim>
				</port>
			</input>
			<output>
				<port id="1" precision="FP32" names="134,input.13">
					<dim>1</dim>
					<dim>8</dim>
					<dim>80</dim>
					<dim>80</dim>
				</port>
			</output>
		</layer>
		<layer id="57" name="__module.model.21.cv3.2.1.1.act/aten::silu_/Swish_3/fq_output_0/input_low" type="Const" version="opset1">
			<data element_type="f32" shape="" offset="24772" size="4" />
			<output>
				<port id="0" precision="FP32" />
			</output>
		</layer>
		<layer id="58" name="__module.model.21.cv3.2.1.1.act/aten::silu_/Swish_3/fq_output_0/input_high" type="Const" version="opset1">
			<data element_type="f32" shape="" offset="24776" size="4" />
			<output>
				<port id="0" precision="FP32" />
			</output>
		</layer>
		<layer id="59" name="__module.model.21.cv3.2.1.1.act/aten::silu_/Swish_3/fq_output_0/output_low" type="Const" version="opset1">
			<data element_type="f32" shape="" offset="24772" size="4" />
			<output>
				<port id="0" precision="FP32" />
			</output>
		</layer>
		<layer id="60" name="__module.model.21.cv3.2.1.1.act/aten::silu_/Swish_3/fq_output_0/output_high" type="Const" version="opset1">
			<data element_type="f32" shape="" offset="24776" size="4" />
			<output>
				<port id="0" precision="FP32" />
			</output>
		</layer>
		<layer id="61" name="__module.model.21.cv3.2.1.1.act/aten::silu_/Swish_3/fq_output_0" type="FakeQuantize" version="opset1">
			<data levels="256" auto_broadcast="numpy" />
			<input>
				<port id="0" precision="FP32">
					<dim>1</dim>
					<dim>8</dim>
					<dim>80</dim>
					<dim>80</dim>
				</port>
				<port id="1" precision="FP32" />
				<port id="2" precision="FP32" />
				<port id="3" precision="FP32" />
				<port id="4" precision="FP32" />
			</input>
			<output>
				<port id="5" precision="FP32">
					<dim>1</dim>
					<dim>8</dim>
					<dim>80</dim>
					<dim>80</dim>
				</port>
			</output>
		</layer>
		<layer id="62" name="Constant_741801" type="Const" version="opset1">
			<data element_type="i8" shape="16, 8, 3, 3" offset="24780" size="1152" />
			<output>
				<port id="0" precision="I8">
					<dim>16</dim>
					<dim>8</dim>
					<dim>3</dim>
					<dim>3</dim>
				</port>
			</output>
		</layer>
		<layer id="63" name="Convert_741802" type="Convert" version="opset1">
			<data destination_type="f32" />
			<input>
				<port id="0" precision="I8">
					<dim>16</dim>
					<dim>8</dim>
					<dim>3</dim>
					<dim>3</dim>
				</port>
			</input>
			<output>
				<port id="1" precision="FP32">
					<dim>16</dim>
					<dim>8</dim>
					<dim>3</dim>
					<dim>3</dim>
				</port>
			</output>
		</layer>
		<layer id="64" name="Constant_741803" type="Const" version="opset1">
			<data element_type="f32" shape="16, 1, 1, 1" offset="25932" size="64" />
			<output>
				<port id="0" precision="FP32">
					<dim>16</dim>
					<dim>1</dim>
					<dim>1</dim>
					<dim>1</dim>
				</port>
			</output>
		</layer>
		<layer id="65" name="__module.model.2.m.0.cv2.conv/aten::_convolution/Convolution/fq_weights_1" type="Multiply" version="opset1">
			<data auto_broadcast="numpy" />
			<input>
				<port id="0" precision="FP32">
					<dim>16</dim>
					<dim>8</dim>
					<dim>3</dim>
					<dim>3</dim>
				</port>
				<port id="1" precision="FP32">
					<dim>16</dim>
					<dim>1</dim>
					<dim>1</dim>
					<dim>1</dim>
				</port>
			</input>
			<output>
				<port id="2" precision="FP32">
					<dim>16</dim>
					<dim>8</dim>
					<dim>3</dim>
					<dim>3</dim>
				</port>
			</output>
		</layer>
		<layer id="66" name="__module.model.2.m.0.cv2.conv/aten::_convolution/Convolution" type="Convolution" version="opset1">
			<data strides="1, 1" dilations="1, 1" pads_begin="1, 1" pads_end="1, 1" auto_pad="explicit" />
			<input>
				<port id="0" precision="FP32">
					<dim>1</dim>
					<dim>8</dim>
					<dim>80</dim>
					<dim>80</dim>
				</port>
				<port id="1" precision="FP32">
					<dim>16</dim>
					<dim>8</dim>
					<dim>3</dim>
					<dim>3</dim>
				</port>
			</input>
			<output>
				<port id="2" precision="FP32">
					<dim>1</dim>
					<dim>16</dim>
					<dim>80</dim>
					<dim>80</dim>
				</port>
			</output>
		</layer>
		<layer id="67" name="__module.model.2.m.0.cv2.conv/aten::_convolution/Reshape" type="Const" version="opset1">
			<data element_type="f32" shape="1, 16, 1, 1" offset="25996" size="64" />
			<output>
				<port id="0" precision="FP32">
					<dim>1</dim>
					<dim>16</dim>
					<dim>1</dim>
					<dim>1</dim>
				</port>
			</output>
		</layer>
		<layer id="68" name="__module.model.2.m.0.cv2.conv/aten::_convolution/Add" type="Add" version="opset1">
			<data auto_broadcast="numpy" />
			<input>
				<port id="0" precision="FP32">
					<dim>1</dim>
					<dim>16</dim>
					<dim>80</dim>
					<dim>80</dim>
				</port>
				<port id="1" precision="FP32">
					<dim>1</dim>
					<dim>16</dim>
					<dim>1</dim>
					<dim>1</dim>
				</port>
			</input>
			<output>
				<port id="2" precision="FP32" names="143_1">
					<dim>1</dim>
					<dim>16</dim>
					<dim>80</dim>
					<dim>80</dim>
				</port>
			</output>
		</layer>
		<layer id="69" name="__module.model.21.cv3.2.1.1.act/aten::silu_/Swish_4" type="Swish" version="opset4">
			<input>
				<port id="0" precision="FP32">
					<dim>1</dim>
					<dim>16</dim>
					<dim>80</dim>
					<dim>80</dim>
				</port>
			</input>
			<output>
				<port id="1" precision="FP32" names="143,input.17">
					<dim>1</dim>
					<dim>16</dim>
					<dim>80</dim>
					<dim>80</dim>
				</port>
			</output>
		</layer>
		<layer id="70" name="__module.model.21.cv3.2.1.1.act/aten::silu_/Swish_4/fq_output_0/input_low" type="Const" version="opset1">
			<data element_type="f32" shape="" offset="17368" size="4" />
			<output>
				<port id="0" precision="FP32" />
			</output>
		</layer>
		<layer id="71" name="__module.model.21.cv3.2.1.1.act/aten::silu_/Swish_4/fq_output_0/input_high" type="Const" version="opset1">
			<data element_type="f32" shape="" offset="26060" size="4" />
			<output>
				<port id="0" precision="FP32" />
			</output>
		</layer>
		<layer id="72" name="__module.model.21.cv3.2.1.1.act/aten::silu_/Swish_4/fq_output_0/output_low" type="Const" version="opset1">
			<data element_type="f32" shape="" offset="17368" size="4" />
			<output>
				<port id="0" precision="FP32" />
			</output>
		</layer>
		<layer id="73" name="__module.model.21.cv3.2.1.1.act/aten::silu_/Swish_4/fq_output_0/output_high" type="Const" version="opset1">
			<data element_type="f32" shape="" offset="26060" size="4" />
			<output>
				<port id="0" precision="FP32" />
			</output>
		</layer>
		<layer id="74" name="__module.model.21.cv3.2.1.1.act/aten::silu_/Swish_4/fq_output_0" type="FakeQuantize" version="opset1">
			<data levels="256" auto_broadcast="numpy" />
			<input>
				<port id="0" precision="FP32">
					<dim>1</dim>
					<dim>16</dim>
					<dim>80</dim>
					<dim>80</dim>
				</port>
				<port id="1" precision="FP32" />
				<port id="2" precision="FP32" />
				<port id="3" precision="FP32" />
				<port id="4" precision="FP32" />
			</input>
			<output>
				<port id="5" precision="FP32">
					<dim>1</dim>
					<dim>16</dim>
					<dim>80</dim>
					<dim>80</dim>
				</port>
			</output>
		</layer>
		<layer id="75" name="__module.model.2.m.0/aten::add/Add" type="Add" version="opset1">
			<data auto_broadcast="numpy" />
			<input>
				<port id="0" precision="FP32">
					<dim>1</dim>
					<dim>16</dim>
					<dim>80</dim>
					<dim>80</dim>
				</port>
				<port id="1" precision="FP32">
					<dim>1</dim>
					<dim>16</dim>
					<dim>80</dim>
					<dim>80</dim>
				</port>
			</input>
			<output>
				<port id="2" precision="FP32" names="145">
					<dim>1</dim>
					<dim>16</dim>
					<dim>80</dim>
					<dim>80</dim>
				</port>
			</output>
		</layer>
		<layer id="76" name="__module.model.2.m.0/aten::add/Add/fq_output_0/input_low" type="Const" version="opset1">
			<data element_type="f32" shape="" offset="23524" size="4" />
			<output>
				<port id="0" precision="FP32" />
			</output>
		</layer>
		<layer id="77" name="__module.model.2.m.0/aten::add/Add/fq_output_0/input_high" type="Const" version="opset1">
			<data element_type="f32" shape="" offset="23528" size="4" />
			<output>
				<port id="0" precision="FP32" />
			</output>
		</layer>
		<layer id="78" name="__module.model.2.m.0/aten::add/Add/fq_output_0/output_low" type="Const" version="opset1">
			<data element_type="f32" shape="" offset="23524" size="4" />
			<output>
				<port id="0" precision="FP32" />
			</output>
		</layer>
		<layer id="79" name="__module.model.2.m.0/aten::add/Add/fq_output_0/output_high" type="Const" version="opset1">
			<data element_type="f32" shape="" offset="23528" size="4" />
			<output>
				<port id="0" precision="FP32" />
			</output>
		</layer>
		<layer id="80" name="__module.model.2.m.0/aten::add/Add/fq_output_0" type="FakeQuantize" version="opset1">
			<data levels="256" auto_broadcast="numpy" />
			<input>
				<port id="0" precision="FP32">
					<dim>1</dim>
					<dim>16</dim>
					<dim>80</dim>
					<dim>80</dim>
				</port>
				<port id="1" precision="FP32" />
				<port id="2" precision="FP32" />
				<port id="3" precision="FP32" />
				<port id="4" precision="FP32" />
			</input>
			<output>
				<port id="5" precision="FP32">
					<dim>1</dim>
					<dim>16</dim>
					<dim>80</dim>
					<dim>80</dim>
				</port>
			</output>
		</layer>
		<layer id="81" name="__module.model.2/aten::cat/Concat" type="Concat" version="opset1">
			<data axis="1" />
			<input>
				<port id="0" precision="FP32">
					<dim>1</dim>
					<dim>16</dim>
					<dim>80</dim>
					<dim>80</dim>
				</port>
				<port id="1" precision="FP32">
					<dim>1</dim>
					<dim>16</dim>
					<dim>80</dim>
					<dim>80</dim>
				</port>
				<port id="2" precision="FP32">
					<dim>1</dim>
					<dim>16</dim>
					<dim>80</dim>
					<dim>80</dim>
				</port>
			</input>
			<output>
				<port id="3" precision="FP32" names="147,input.19">
					<dim>1</dim>
					<dim>48</dim>
					<dim>80</dim>
					<dim>80</dim>
				</port>
			</output>
		</layer>
		<layer id="82" name="Constant_741805" type="Const" version="opset1">
			<data element_type="i8" shape="64, 48, 1, 1" offset="26064" size="3072" />
			<output>
				<port id="0" precision="I8">
					<dim>64</dim>
					<dim>48</dim>
					<dim>1</dim>
					<dim>1</dim>
				</port>
			</output>
		</layer>
		<layer id="83" name="Convert_741806" type="Convert" version="opset1">
			<data destination_type="f32" />
			<input>
				<port id="0" precision="I8">
					<dim>64</dim>
					<dim>48</dim>
					<dim>1</dim>
					<dim>1</dim>
				</port>
			</input>
			<output>
				<port id="1" precision="FP32">
					<dim>64</dim>
					<dim>48</dim>
					<dim>1</dim>
					<dim>1</dim>
				</port>
			</output>
		</layer>
		<layer id="84" name="Constant_741807" type="Const" version="opset1">
			<data element_type="f32" shape="64, 1, 1, 1" offset="29136" size="256" />
			<output>
				<port id="0" precision="FP32">
					<dim>64</dim>
					<dim>1</dim>
					<dim>1</dim>
					<dim>1</dim>
				</port>
			</output>
		</layer>
		<layer id="85" name="__module.model.2.cv2.conv/aten::_convolution/Convolution/fq_weights_1" type="Multiply" version="opset1">
			<data auto_broadcast="numpy" />
			<input>
				<port id="0" precision="FP32">
					<dim>64</dim>
					<dim>48</dim>
					<dim>1</dim>
					<dim>1</dim>
				</port>
				<port id="1" precision="FP32">
					<dim>64</dim>
					<dim>1</dim>
					<dim>1</dim>
					<dim>1</dim>
				</port>
			</input>
			<output>
				<port id="2" precision="FP32">
					<dim>64</dim>
					<dim>48</dim>
					<dim>1</dim>
					<dim>1</dim>
				</port>
			</output>
		</layer>
		<layer id="86" name="__module.model.2.cv2.conv/aten::_convolution/Convolution" type="Convolution" version="opset1">
			<data strides="1, 1" dilations="1, 1" pads_begin="0, 0" pads_end="0, 0" auto_pad="explicit" />
			<input>
				<port id="0" precision="FP32">
					<dim>1</dim>
					<dim>48</dim>
					<dim>80</dim>
					<dim>80</dim>
				</port>
				<port id="1" precision="FP32">
					<dim>64</dim>
					<dim>48</dim>
					<dim>1</dim>
					<dim>1</dim>
				</port>
			</input>
			<output>
				<port id="2" precision="FP32">
					<dim>1</dim>
					<dim>64</dim>
					<dim>80</dim>
					<dim>80</dim>
				</port>
			</output>
		</layer>
		<layer id="87" name="__module.model.2.cv2.conv/aten::_convolution/Reshape" type="Const" version="opset1">
			<data element_type="f32" shape="1, 64, 1, 1" offset="29392" size="256" />
			<output>
				<port id="0" precision="FP32">
					<dim>1</dim>
					<dim>64</dim>
					<dim>1</dim>
					<dim>1</dim>
				</port>
			</output>
		</layer>
		<layer id="88" name="__module.model.2.cv2.conv/aten::_convolution/Add" type="Add" version="opset1">
			<data auto_broadcast="numpy" />
			<input>
				<port id="0" precision="FP32">
					<dim>1</dim>
					<dim>64</dim>
					<dim>80</dim>
					<dim>80</dim>
				</port>
				<port id="1" precision="FP32">
					<dim>1</dim>
					<dim>64</dim>
					<dim>1</dim>
					<dim>1</dim>
				</port>
			</input>
			<output>
				<port id="2" precision="FP32" names="155_1">
					<dim>1</dim>
					<dim>64</dim>
					<dim>80</dim>
					<dim>80</dim>
				</port>
			</output>
		</layer>
		<layer id="89" name="__module.model.21.cv3.2.1.1.act/aten::silu_/Swish_5" type="Swish" version="opset4">
			<input>
				<port id="0" precision="FP32">
					<dim>1</dim>
					<dim>64</dim>
					<dim>80</dim>
					<dim>80</dim>
				</port>
			</input>
			<output>
				<port id="1" precision="FP32" names="155,input.21">
					<dim>1</dim>
					<dim>64</dim>
					<dim>80</dim>
					<dim>80</dim>
				</port>
			</output>
		</layer>
		<layer id="90" name="__module.model.21.cv3.2.1.1.act/aten::silu_/Swish_5/fq_output_0/input_low" type="Const" version="opset1">
			<data element_type="f32" shape="" offset="29648" size="4" />
			<output>
				<port id="0" precision="FP32" />
			</output>
		</layer>
		<layer id="91" name="__module.model.21.cv3.2.1.1.act/aten::silu_/Swish_5/fq_output_0/input_high" type="Const" version="opset1">
			<data element_type="f32" shape="" offset="29652" size="4" />
			<output>
				<port id="0" precision="FP32" />
			</output>
		</layer>
		<layer id="92" name="__module.model.21.cv3.2.1.1.act/aten::silu_/Swish_5/fq_output_0/output_low" type="Const" version="opset1">
			<data element_type="f32" shape="" offset="29648" size="4" />
			<output>
				<port id="0" precision="FP32" />
			</output>
		</layer>
		<layer id="93" name="__module.model.21.cv3.2.1.1.act/aten::silu_/Swish_5/fq_output_0/output_high" type="Const" version="opset1">
			<data element_type="f32" shape="" offset="29652" size="4" />
			<output>
				<port id="0" precision="FP32" />
			</output>
		</layer>
		<layer id="94" name="__module.model.21.cv3.2.1.1.act/aten::silu_/Swish_5/fq_output_0" type="FakeQuantize" version="opset1">
			<data levels="256" auto_broadcast="numpy" />
			<input>
				<port id="0" precision="FP32">
					<dim>1</dim>
					<dim>64</dim>
					<dim>80</dim>
					<dim>80</dim>
				</port>
				<port id="1" precision="FP32" />
				<port id="2" precision="FP32" />
				<port id="3" precision="FP32" />
				<port id="4" precision="FP32" />
			</input>
			<output>
				<port id="5" precision="FP32">
					<dim>1</dim>
					<dim>64</dim>
					<dim>80</dim>
					<dim>80</dim>
				</port>
			</output>
		</layer>
		<layer id="95" name="Constant_741809" type="Const" version="opset1">
			<data element_type="i8" shape="64, 64, 3, 3" offset="29656" size="36864" />
			<output>
				<port id="0" precision="I8">
					<dim>64</dim>
					<dim>64</dim>
					<dim>3</dim>
					<dim>3</dim>
				</port>
			</output>
		</layer>
		<layer id="96" name="Convert_741810" type="Convert" version="opset1">
			<data destination_type="f32" />
			<input>
				<port id="0" precision="I8">
					<dim>64</dim>
					<dim>64</dim>
					<dim>3</dim>
					<dim>3</dim>
				</port>
			</input>
			<output>
				<port id="1" precision="FP32">
					<dim>64</dim>
					<dim>64</dim>
					<dim>3</dim>
					<dim>3</dim>
				</port>
			</output>
		</layer>
		<layer id="97" name="Constant_741811" type="Const" version="opset1">
			<data element_type="f32" shape="64, 1, 1, 1" offset="66520" size="256" />
			<output>
				<port id="0" precision="FP32">
					<dim>64</dim>
					<dim>1</dim>
					<dim>1</dim>
					<dim>1</dim>
				</port>
			</output>
		</layer>
		<layer id="98" name="__module.model.3.conv/aten::_convolution/Convolution/fq_weights_1" type="Multiply" version="opset1">
			<data auto_broadcast="numpy" />
			<input>
				<port id="0" precision="FP32">
					<dim>64</dim>
					<dim>64</dim>
					<dim>3</dim>
					<dim>3</dim>
				</port>
				<port id="1" precision="FP32">
					<dim>64</dim>
					<dim>1</dim>
					<dim>1</dim>
					<dim>1</dim>
				</port>
			</input>
			<output>
				<port id="2" precision="FP32">
					<dim>64</dim>
					<dim>64</dim>
					<dim>3</dim>
					<dim>3</dim>
				</port>
			</output>
		</layer>
		<layer id="99" name="__module.model.3.conv/aten::_convolution/Convolution" type="Convolution" version="opset1">
			<data strides="2, 2" dilations="1, 1" pads_begin="1, 1" pads_end="1, 1" auto_pad="explicit" />
			<input>
				<port id="0" precision="FP32">
					<dim>1</dim>
					<dim>64</dim>
					<dim>80</dim>
					<dim>80</dim>
				</port>
				<port id="1" precision="FP32">
					<dim>64</dim>
					<dim>64</dim>
					<dim>3</dim>
					<dim>3</dim>
				</port>
			</input>
			<output>
				<port id="2" precision="FP32">
					<dim>1</dim>
					<dim>64</dim>
					<dim>40</dim>
					<dim>40</dim>
				</port>
			</output>
		</layer>
		<layer id="100" name="__module.model.3.conv/aten::_convolution/Reshape" type="Const" version="opset1">
			<data element_type="f32" shape="1, 64, 1, 1" offset="66776" size="256" />
			<output>
				<port id="0" precision="FP32">
					<dim>1</dim>
					<dim>64</dim>
					<dim>1</dim>
					<dim>1</dim>
				</port>
			</output>
		</layer>
		<layer id="101" name="__module.model.3.conv/aten::_convolution/Add" type="Add" version="opset1">
			<data auto_broadcast="numpy" />
			<input>
				<port id="0" precision="FP32">
					<dim>1</dim>
					<dim>64</dim>
					<dim>40</dim>
					<dim>40</dim>
				</port>
				<port id="1" precision="FP32">
					<dim>1</dim>
					<dim>64</dim>
					<dim>1</dim>
					<dim>1</dim>
				</port>
			</input>
			<output>
				<port id="2" precision="FP32" names="169_1">
					<dim>1</dim>
					<dim>64</dim>
					<dim>40</dim>
					<dim>40</dim>
				</port>
			</output>
		</layer>
		<layer id="102" name="__module.model.21.cv3.2.1.1.act/aten::silu_/Swish_6" type="Swish" version="opset4">
			<input>
				<port id="0" precision="FP32">
					<dim>1</dim>
					<dim>64</dim>
					<dim>40</dim>
					<dim>40</dim>
				</port>
			</input>
			<output>
				<port id="1" precision="FP32" names="169,input.25">
					<dim>1</dim>
					<dim>64</dim>
					<dim>40</dim>
					<dim>40</dim>
				</port>
			</output>
		</layer>
		<layer id="103" name="__module.model.21.cv3.2.1.1.act/aten::silu_/Swish_6/fq_output_0/input_low" type="Const" version="opset1">
			<data element_type="f32" shape="" offset="67032" size="4" />
			<output>
				<port id="0" precision="FP32" />
			</output>
		</layer>
		<layer id="104" name="__module.model.21.cv3.2.1.1.act/aten::silu_/Swish_6/fq_output_0/input_high" type="Const" version="opset1">
			<data element_type="f32" shape="" offset="67036" size="4" />
			<output>
				<port id="0" precision="FP32" />
			</output>
		</layer>
		<layer id="105" name="__module.model.21.cv3.2.1.1.act/aten::silu_/Swish_6/fq_output_0/output_low" type="Const" version="opset1">
			<data element_type="f32" shape="" offset="67032" size="4" />
			<output>
				<port id="0" precision="FP32" />
			</output>
		</layer>
		<layer id="106" name="__module.model.21.cv3.2.1.1.act/aten::silu_/Swish_6/fq_output_0/output_high" type="Const" version="opset1">
			<data element_type="f32" shape="" offset="67036" size="4" />
			<output>
				<port id="0" precision="FP32" />
			</output>
		</layer>
		<layer id="107" name="__module.model.21.cv3.2.1.1.act/aten::silu_/Swish_6/fq_output_0" type="FakeQuantize" version="opset1">
			<data levels="256" auto_broadcast="numpy" />
			<input>
				<port id="0" precision="FP32">
					<dim>1</dim>
					<dim>64</dim>
					<dim>40</dim>
					<dim>40</dim>
				</port>
				<port id="1" precision="FP32" />
				<port id="2" precision="FP32" />
				<port id="3" precision="FP32" />
				<port id="4" precision="FP32" />
			</input>
			<output>
				<port id="5" precision="FP32">
					<dim>1</dim>
					<dim>64</dim>
					<dim>40</dim>
					<dim>40</dim>
				</port>
			</output>
		</layer>
		<layer id="108" name="Constant_741813" type="Const" version="opset1">
			<data element_type="i8" shape="64, 64, 1, 1" offset="67040" size="4096" />
			<output>
				<port id="0" precision="I8">
					<dim>64</dim>
					<dim>64</dim>
					<dim>1</dim>
					<dim>1</dim>
				</port>
			</output>
		</layer>
		<layer id="109" name="Convert_741814" type="Convert" version="opset1">
			<data destination_type="f32" />
			<input>
				<port id="0" precision="I8">
					<dim>64</dim>
					<dim>64</dim>
					<dim>1</dim>
					<dim>1</dim>
				</port>
			</input>
			<output>
				<port id="1" precision="FP32">
					<dim>64</dim>
					<dim>64</dim>
					<dim>1</dim>
					<dim>1</dim>
				</port>
			</output>
		</layer>
		<layer id="110" name="Constant_741815" type="Const" version="opset1">
			<data element_type="f32" shape="64, 1, 1, 1" offset="71136" size="256" />
			<output>
				<port id="0" precision="FP32">
					<dim>64</dim>
					<dim>1</dim>
					<dim>1</dim>
					<dim>1</dim>
				</port>
			</output>
		</layer>
		<layer id="111" name="__module.model.4.cv1.conv/aten::_convolution/Convolution/fq_weights_1" type="Multiply" version="opset1">
			<data auto_broadcast="numpy" />
			<input>
				<port id="0" precision="FP32">
					<dim>64</dim>
					<dim>64</dim>
					<dim>1</dim>
					<dim>1</dim>
				</port>
				<port id="1" precision="FP32">
					<dim>64</dim>
					<dim>1</dim>
					<dim>1</dim>
					<dim>1</dim>
				</port>
			</input>
			<output>
				<port id="2" precision="FP32">
					<dim>64</dim>
					<dim>64</dim>
					<dim>1</dim>
					<dim>1</dim>
				</port>
			</output>
		</layer>
		<layer id="112" name="__module.model.4.cv1.conv/aten::_convolution/Convolution" type="Convolution" version="opset1">
			<data strides="1, 1" dilations="1, 1" pads_begin="0, 0" pads_end="0, 0" auto_pad="explicit" />
			<input>
				<port id="0" precision="FP32">
					<dim>1</dim>
					<dim>64</dim>
					<dim>40</dim>
					<dim>40</dim>
				</port>
				<port id="1" precision="FP32">
					<dim>64</dim>
					<dim>64</dim>
					<dim>1</dim>
					<dim>1</dim>
				</port>
			</input>
			<output>
				<port id="2" precision="FP32">
					<dim>1</dim>
					<dim>64</dim>
					<dim>40</dim>
					<dim>40</dim>
				</port>
			</output>
		</layer>
		<layer id="113" name="__module.model.4.cv1.conv/aten::_convolution/Reshape" type="Const" version="opset1">
			<data element_type="f32" shape="1, 64, 1, 1" offset="71392" size="256" />
			<output>
				<port id="0" precision="FP32">
					<dim>1</dim>
					<dim>64</dim>
					<dim>1</dim>
					<dim>1</dim>
				</port>
			</output>
		</layer>
		<layer id="114" name="__module.model.4.cv1.conv/aten::_convolution/Add" type="Add" version="opset1">
			<data auto_broadcast="numpy" />
			<input>
				<port id="0" precision="FP32">
					<dim>1</dim>
					<dim>64</dim>
					<dim>40</dim>
					<dim>40</dim>
				</port>
				<port id="1" precision="FP32">
					<dim>1</dim>
					<dim>64</dim>
					<dim>1</dim>
					<dim>1</dim>
				</port>
			</input>
			<output>
				<port id="2" precision="FP32" names="187_1">
					<dim>1</dim>
					<dim>64</dim>
					<dim>40</dim>
					<dim>40</dim>
				</port>
			</output>
		</layer>
		<layer id="115" name="__module.model.21.cv3.2.1.1.act/aten::silu_/Swish_7" type="Swish" version="opset4">
			<input>
				<port id="0" precision="FP32">
					<dim>1</dim>
					<dim>64</dim>
					<dim>40</dim>
					<dim>40</dim>
				</port>
			</input>
			<output>
				<port id="1" precision="FP32" names="187,input.29">
					<dim>1</dim>
					<dim>64</dim>
					<dim>40</dim>
					<dim>40</dim>
				</port>
			</output>
		</layer>
		<layer id="116" name="__module.model.21.cv3.2.1.1.act/aten::silu_/Swish_7/fq_output_0/input_low" type="Const" version="opset1">
			<data element_type="f32" shape="" offset="71648" size="4" />
			<output>
				<port id="0" precision="FP32" />
			</output>
		</layer>
		<layer id="117" name="__module.model.21.cv3.2.1.1.act/aten::silu_/Swish_7/fq_output_0/input_high" type="Const" version="opset1">
			<data element_type="f32" shape="" offset="71652" size="4" />
			<output>
				<port id="0" precision="FP32" />
			</output>
		</layer>
		<layer id="118" name="__module.model.21.cv3.2.1.1.act/aten::silu_/Swish_7/fq_output_0/output_low" type="Const" version="opset1">
			<data element_type="f32" shape="" offset="71648" size="4" />
			<output>
				<port id="0" precision="FP32" />
			</output>
		</layer>
		<layer id="119" name="__module.model.21.cv3.2.1.1.act/aten::silu_/Swish_7/fq_output_0/output_high" type="Const" version="opset1">
			<data element_type="f32" shape="" offset="71652" size="4" />
			<output>
				<port id="0" precision="FP32" />
			</output>
		</layer>
		<layer id="120" name="__module.model.21.cv3.2.1.1.act/aten::silu_/Swish_7/fq_output_0" type="FakeQuantize" version="opset1">
			<data levels="256" auto_broadcast="numpy" />
			<input>
				<port id="0" precision="FP32">
					<dim>1</dim>
					<dim>64</dim>
					<dim>40</dim>
					<dim>40</dim>
				</port>
				<port id="1" precision="FP32" />
				<port id="2" precision="FP32" />
				<port id="3" precision="FP32" />
				<port id="4" precision="FP32" />
			</input>
			<output>
				<port id="5" precision="FP32">
					<dim>1</dim>
					<dim>64</dim>
					<dim>40</dim>
					<dim>40</dim>
				</port>
			</output>
		</layer>
		<layer id="121" name="175" type="Const" version="opset1">
			<data element_type="i64" shape="" offset="23532" size="8" />
			<output>
				<port id="0" precision="I64" names="175" />
			</output>
		</layer>
		<layer id="122" name="Constant_469" type="Const" version="opset1">
			<data element_type="i64" shape="2" offset="71656" size="16" />
			<output>
				<port id="0" precision="I64" names="189">
					<dim>2</dim>
				</port>
			</output>
		</layer>
		<layer id="123" name="__module.model.4/prim::ListUnpack" type="VariadicSplit" version="opset1">
			<input>
				<port id="0" precision="FP32">
					<dim>1</dim>
					<dim>64</dim>
					<dim>40</dim>
					<dim>40</dim>
				</port>
				<port id="1" precision="I64" />
				<port id="2" precision="I64">
					<dim>2</dim>
				</port>
			</input>
			<output>
				<port id="3" precision="FP32" names="191">
					<dim>1</dim>
					<dim>32</dim>
					<dim>40</dim>
					<dim>40</dim>
				</port>
				<port id="4" precision="FP32" names="192,input.31">
					<dim>1</dim>
					<dim>32</dim>
					<dim>40</dim>
					<dim>40</dim>
				</port>
			</output>
		</layer>
		<layer id="124" name="Constant_741817" type="Const" version="opset1">
			<data element_type="i8" shape="16, 32, 3, 3" offset="71672" size="4608" />
			<output>
				<port id="0" precision="I8">
					<dim>16</dim>
					<dim>32</dim>
					<dim>3</dim>
					<dim>3</dim>
				</port>
			</output>
		</layer>
		<layer id="125" name="Convert_741818" type="Convert" version="opset1">
			<data destination_type="f32" />
			<input>
				<port id="0" precision="I8">
					<dim>16</dim>
					<dim>32</dim>
					<dim>3</dim>
					<dim>3</dim>
				</port>
			</input>
			<output>
				<port id="1" precision="FP32">
					<dim>16</dim>
					<dim>32</dim>
					<dim>3</dim>
					<dim>3</dim>
				</port>
			</output>
		</layer>
		<layer id="126" name="Constant_741819" type="Const" version="opset1">
			<data element_type="f32" shape="16, 1, 1, 1" offset="76280" size="64" />
			<output>
				<port id="0" precision="FP32">
					<dim>16</dim>
					<dim>1</dim>
					<dim>1</dim>
					<dim>1</dim>
				</port>
			</output>
		</layer>
		<layer id="127" name="__module.model.4.m.0.cv1.conv/aten::_convolution/Convolution/fq_weights_1" type="Multiply" version="opset1">
			<data auto_broadcast="numpy" />
			<input>
				<port id="0" precision="FP32">
					<dim>16</dim>
					<dim>32</dim>
					<dim>3</dim>
					<dim>3</dim>
				</port>
				<port id="1" precision="FP32">
					<dim>16</dim>
					<dim>1</dim>
					<dim>1</dim>
					<dim>1</dim>
				</port>
			</input>
			<output>
				<port id="2" precision="FP32">
					<dim>16</dim>
					<dim>32</dim>
					<dim>3</dim>
					<dim>3</dim>
				</port>
			</output>
		</layer>
		<layer id="128" name="__module.model.4.m.0.cv1.conv/aten::_convolution/Convolution" type="Convolution" version="opset1">
			<data strides="1, 1" dilations="1, 1" pads_begin="1, 1" pads_end="1, 1" auto_pad="explicit" />
			<input>
				<port id="0" precision="FP32">
					<dim>1</dim>
					<dim>32</dim>
					<dim>40</dim>
					<dim>40</dim>
				</port>
				<port id="1" precision="FP32">
					<dim>16</dim>
					<dim>32</dim>
					<dim>3</dim>
					<dim>3</dim>
				</port>
			</input>
			<output>
				<port id="2" precision="FP32">
					<dim>1</dim>
					<dim>16</dim>
					<dim>40</dim>
					<dim>40</dim>
				</port>
			</output>
		</layer>
		<layer id="129" name="__module.model.4.m.0.cv1.conv/aten::_convolution/Reshape" type="Const" version="opset1">
			<data element_type="f32" shape="1, 16, 1, 1" offset="76344" size="64" />
			<output>
				<port id="0" precision="FP32">
					<dim>1</dim>
					<dim>16</dim>
					<dim>1</dim>
					<dim>1</dim>
				</port>
			</output>
		</layer>
		<layer id="130" name="__module.model.4.m.0.cv1.conv/aten::_convolution/Add" type="Add" version="opset1">
			<data auto_broadcast="numpy" />
			<input>
				<port id="0" precision="FP32">
					<dim>1</dim>
					<dim>16</dim>
					<dim>40</dim>
					<dim>40</dim>
				</port>
				<port id="1" precision="FP32">
					<dim>1</dim>
					<dim>16</dim>
					<dim>1</dim>
					<dim>1</dim>
				</port>
			</input>
			<output>
				<port id="2" precision="FP32" names="202_1">
					<dim>1</dim>
					<dim>16</dim>
					<dim>40</dim>
					<dim>40</dim>
				</port>
			</output>
		</layer>
		<layer id="131" name="__module.model.21.cv3.2.1.1.act/aten::silu_/Swish_8" type="Swish" version="opset4">
			<input>
				<port id="0" precision="FP32">
					<dim>1</dim>
					<dim>16</dim>
					<dim>40</dim>
					<dim>40</dim>
				</port>
			</input>
			<output>
				<port id="1" precision="FP32" names="202,input.33">
					<dim>1</dim>
					<dim>16</dim>
					<dim>40</dim>
					<dim>40</dim>
				</port>
			</output>
		</layer>
		<layer id="132" name="__module.model.21.cv3.2.1.1.act/aten::silu_/Swish_8/fq_output_0/input_low" type="Const" version="opset1">
			<data element_type="f32" shape="" offset="24772" size="4" />
			<output>
				<port id="0" precision="FP32" />
			</output>
		</layer>
		<layer id="133" name="__module.model.21.cv3.2.1.1.act/aten::silu_/Swish_8/fq_output_0/input_high" type="Const" version="opset1">
			<data element_type="f32" shape="" offset="76408" size="4" />
			<output>
				<port id="0" precision="FP32" />
			</output>
		</layer>
		<layer id="134" name="__module.model.21.cv3.2.1.1.act/aten::silu_/Swish_8/fq_output_0/output_low" type="Const" version="opset1">
			<data element_type="f32" shape="" offset="24772" size="4" />
			<output>
				<port id="0" precision="FP32" />
			</output>
		</layer>
		<layer id="135" name="__module.model.21.cv3.2.1.1.act/aten::silu_/Swish_8/fq_output_0/output_high" type="Const" version="opset1">
			<data element_type="f32" shape="" offset="76408" size="4" />
			<output>
				<port id="0" precision="FP32" />
			</output>
		</layer>
		<layer id="136" name="__module.model.21.cv3.2.1.1.act/aten::silu_/Swish_8/fq_output_0" type="FakeQuantize" version="opset1">
			<data levels="256" auto_broadcast="numpy" />
			<input>
				<port id="0" precision="FP32">
					<dim>1</dim>
					<dim>16</dim>
					<dim>40</dim>
					<dim>40</dim>
				</port>
				<port id="1" precision="FP32" />
				<port id="2" precision="FP32" />
				<port id="3" precision="FP32" />
				<port id="4" precision="FP32" />
			</input>
			<output>
				<port id="5" precision="FP32">
					<dim>1</dim>
					<dim>16</dim>
					<dim>40</dim>
					<dim>40</dim>
				</port>
			</output>
		</layer>
		<layer id="137" name="Constant_741821" type="Const" version="opset1">
			<data element_type="i8" shape="32, 16, 3, 3" offset="76412" size="4608" />
			<output>
				<port id="0" precision="I8">
					<dim>32</dim>
					<dim>16</dim>
					<dim>3</dim>
					<dim>3</dim>
				</port>
			</output>
		</layer>
		<layer id="138" name="Convert_741822" type="Convert" version="opset1">
			<data destination_type="f32" />
			<input>
				<port id="0" precision="I8">
					<dim>32</dim>
					<dim>16</dim>
					<dim>3</dim>
					<dim>3</dim>
				</port>
			</input>
			<output>
				<port id="1" precision="FP32">
					<dim>32</dim>
					<dim>16</dim>
					<dim>3</dim>
					<dim>3</dim>
				</port>
			</output>
		</layer>
		<layer id="139" name="Constant_741823" type="Const" version="opset1">
			<data element_type="f32" shape="32, 1, 1, 1" offset="81020" size="128" />
			<output>
				<port id="0" precision="FP32">
					<dim>32</dim>
					<dim>1</dim>
					<dim>1</dim>
					<dim>1</dim>
				</port>
			</output>
		</layer>
		<layer id="140" name="__module.model.4.m.0.cv2.conv/aten::_convolution/Convolution/fq_weights_1" type="Multiply" version="opset1">
			<data auto_broadcast="numpy" />
			<input>
				<port id="0" precision="FP32">
					<dim>32</dim>
					<dim>16</dim>
					<dim>3</dim>
					<dim>3</dim>
				</port>
				<port id="1" precision="FP32">
					<dim>32</dim>
					<dim>1</dim>
					<dim>1</dim>
					<dim>1</dim>
				</port>
			</input>
			<output>
				<port id="2" precision="FP32">
					<dim>32</dim>
					<dim>16</dim>
					<dim>3</dim>
					<dim>3</dim>
				</port>
			</output>
		</layer>
		<layer id="141" name="__module.model.4.m.0.cv2.conv/aten::_convolution/Convolution" type="Convolution" version="opset1">
			<data strides="1, 1" dilations="1, 1" pads_begin="1, 1" pads_end="1, 1" auto_pad="explicit" />
			<input>
				<port id="0" precision="FP32">
					<dim>1</dim>
					<dim>16</dim>
					<dim>40</dim>
					<dim>40</dim>
				</port>
				<port id="1" precision="FP32">
					<dim>32</dim>
					<dim>16</dim>
					<dim>3</dim>
					<dim>3</dim>
				</port>
			</input>
			<output>
				<port id="2" precision="FP32">
					<dim>1</dim>
					<dim>32</dim>
					<dim>40</dim>
					<dim>40</dim>
				</port>
			</output>
		</layer>
		<layer id="142" name="__module.model.4.m.0.cv2.conv/aten::_convolution/Reshape" type="Const" version="opset1">
			<data element_type="f32" shape="1, 32, 1, 1" offset="81148" size="128" />
			<output>
				<port id="0" precision="FP32">
					<dim>1</dim>
					<dim>32</dim>
					<dim>1</dim>
					<dim>1</dim>
				</port>
			</output>
		</layer>
		<layer id="143" name="__module.model.4.m.0.cv2.conv/aten::_convolution/Add" type="Add" version="opset1">
			<data auto_broadcast="numpy" />
			<input>
				<port id="0" precision="FP32">
					<dim>1</dim>
					<dim>32</dim>
					<dim>40</dim>
					<dim>40</dim>
				</port>
				<port id="1" precision="FP32">
					<dim>1</dim>
					<dim>32</dim>
					<dim>1</dim>
					<dim>1</dim>
				</port>
			</input>
			<output>
				<port id="2" precision="FP32" names="211_1">
					<dim>1</dim>
					<dim>32</dim>
					<dim>40</dim>
					<dim>40</dim>
				</port>
			</output>
		</layer>
		<layer id="144" name="__module.model.21.cv3.2.1.1.act/aten::silu_/Swish_9" type="Swish" version="opset4">
			<input>
				<port id="0" precision="FP32">
					<dim>1</dim>
					<dim>32</dim>
					<dim>40</dim>
					<dim>40</dim>
				</port>
			</input>
			<output>
				<port id="1" precision="FP32" names="211,input.37">
					<dim>1</dim>
					<dim>32</dim>
					<dim>40</dim>
					<dim>40</dim>
				</port>
			</output>
		</layer>
		<layer id="145" name="__module.model.21.cv3.2.1.1.act/aten::silu_/Swish_9/fq_output_0/input_low" type="Const" version="opset1">
			<data element_type="f32" shape="" offset="81276" size="4" />
			<output>
				<port id="0" precision="FP32" />
			</output>
		</layer>
		<layer id="146" name="__module.model.21.cv3.2.1.1.act/aten::silu_/Swish_9/fq_output_0/input_high" type="Const" version="opset1">
			<data element_type="f32" shape="" offset="81280" size="4" />
			<output>
				<port id="0" precision="FP32" />
			</output>
		</layer>
		<layer id="147" name="__module.model.21.cv3.2.1.1.act/aten::silu_/Swish_9/fq_output_0/output_low" type="Const" version="opset1">
			<data element_type="f32" shape="" offset="81276" size="4" />
			<output>
				<port id="0" precision="FP32" />
			</output>
		</layer>
		<layer id="148" name="__module.model.21.cv3.2.1.1.act/aten::silu_/Swish_9/fq_output_0/output_high" type="Const" version="opset1">
			<data element_type="f32" shape="" offset="81280" size="4" />
			<output>
				<port id="0" precision="FP32" />
			</output>
		</layer>
		<layer id="149" name="__module.model.21.cv3.2.1.1.act/aten::silu_/Swish_9/fq_output_0" type="FakeQuantize" version="opset1">
			<data levels="256" auto_broadcast="numpy" />
			<input>
				<port id="0" precision="FP32">
					<dim>1</dim>
					<dim>32</dim>
					<dim>40</dim>
					<dim>40</dim>
				</port>
				<port id="1" precision="FP32" />
				<port id="2" precision="FP32" />
				<port id="3" precision="FP32" />
				<port id="4" precision="FP32" />
			</input>
			<output>
				<port id="5" precision="FP32">
					<dim>1</dim>
					<dim>32</dim>
					<dim>40</dim>
					<dim>40</dim>
				</port>
			</output>
		</layer>
		<layer id="150" name="__module.model.4.m.0/aten::add/Add" type="Add" version="opset1">
			<data auto_broadcast="numpy" />
			<input>
				<port id="0" precision="FP32">
					<dim>1</dim>
					<dim>32</dim>
					<dim>40</dim>
					<dim>40</dim>
				</port>
				<port id="1" precision="FP32">
					<dim>1</dim>
					<dim>32</dim>
					<dim>40</dim>
					<dim>40</dim>
				</port>
			</input>
			<output>
				<port id="2" precision="FP32" names="213">
					<dim>1</dim>
					<dim>32</dim>
					<dim>40</dim>
					<dim>40</dim>
				</port>
			</output>
		</layer>
		<layer id="151" name="__module.model.4.m.0/aten::add/Add/fq_output_0/input_low" type="Const" version="opset1">
			<data element_type="f32" shape="" offset="71648" size="4" />
			<output>
				<port id="0" precision="FP32" />
			</output>
		</layer>
		<layer id="152" name="__module.model.4.m.0/aten::add/Add/fq_output_0/input_high" type="Const" version="opset1">
			<data element_type="f32" shape="" offset="71652" size="4" />
			<output>
				<port id="0" precision="FP32" />
			</output>
		</layer>
		<layer id="153" name="__module.model.4.m.0/aten::add/Add/fq_output_0/output_low" type="Const" version="opset1">
			<data element_type="f32" shape="" offset="71648" size="4" />
			<output>
				<port id="0" precision="FP32" />
			</output>
		</layer>
		<layer id="154" name="__module.model.4.m.0/aten::add/Add/fq_output_0/output_high" type="Const" version="opset1">
			<data element_type="f32" shape="" offset="71652" size="4" />
			<output>
				<port id="0" precision="FP32" />
			</output>
		</layer>
		<layer id="155" name="__module.model.4.m.0/aten::add/Add/fq_output_0" type="FakeQuantize" version="opset1">
			<data levels="256" auto_broadcast="numpy" />
			<input>
				<port id="0" precision="FP32">
					<dim>1</dim>
					<dim>32</dim>
					<dim>40</dim>
					<dim>40</dim>
				</port>
				<port id="1" precision="FP32" />
				<port id="2" precision="FP32" />
				<port id="3" precision="FP32" />
				<port id="4" precision="FP32" />
			</input>
			<output>
				<port id="5" precision="FP32">
					<dim>1</dim>
					<dim>32</dim>
					<dim>40</dim>
					<dim>40</dim>
				</port>
			</output>
		</layer>
		<layer id="156" name="__module.model.4/aten::cat/Concat" type="Concat" version="opset1">
			<data axis="1" />
			<input>
				<port id="0" precision="FP32">
					<dim>1</dim>
					<dim>32</dim>
					<dim>40</dim>
					<dim>40</dim>
				</port>
				<port id="1" precision="FP32">
					<dim>1</dim>
					<dim>32</dim>
					<dim>40</dim>
					<dim>40</dim>
				</port>
				<port id="2" precision="FP32">
					<dim>1</dim>
					<dim>32</dim>
					<dim>40</dim>
					<dim>40</dim>
				</port>
			</input>
			<output>
				<port id="3" precision="FP32" names="215,input.39">
					<dim>1</dim>
					<dim>96</dim>
					<dim>40</dim>
					<dim>40</dim>
				</port>
			</output>
		</layer>
		<layer id="157" name="Constant_741825" type="Const" version="opset1">
			<data element_type="i8" shape="128, 96, 1, 1" offset="81284" size="12288" />
			<output>
				<port id="0" precision="I8">
					<dim>128</dim>
					<dim>96</dim>
					<dim>1</dim>
					<dim>1</dim>
				</port>
			</output>
		</layer>
		<layer id="158" name="Convert_741826" type="Convert" version="opset1">
			<data destination_type="f32" />
			<input>
				<port id="0" precision="I8">
					<dim>128</dim>
					<dim>96</dim>
					<dim>1</dim>
					<dim>1</dim>
				</port>
			</input>
			<output>
				<port id="1" precision="FP32">
					<dim>128</dim>
					<dim>96</dim>
					<dim>1</dim>
					<dim>1</dim>
				</port>
			</output>
		</layer>
		<layer id="159" name="Constant_741827" type="Const" version="opset1">
			<data element_type="f32" shape="128, 1, 1, 1" offset="93572" size="512" />
			<output>
				<port id="0" precision="FP32">
					<dim>128</dim>
					<dim>1</dim>
					<dim>1</dim>
					<dim>1</dim>
				</port>
			</output>
		</layer>
		<layer id="160" name="__module.model.4.cv2.conv/aten::_convolution/Convolution/fq_weights_1" type="Multiply" version="opset1">
			<data auto_broadcast="numpy" />
			<input>
				<port id="0" precision="FP32">
					<dim>128</dim>
					<dim>96</dim>
					<dim>1</dim>
					<dim>1</dim>
				</port>
				<port id="1" precision="FP32">
					<dim>128</dim>
					<dim>1</dim>
					<dim>1</dim>
					<dim>1</dim>
				</port>
			</input>
			<output>
				<port id="2" precision="FP32">
					<dim>128</dim>
					<dim>96</dim>
					<dim>1</dim>
					<dim>1</dim>
				</port>
			</output>
		</layer>
		<layer id="161" name="__module.model.4.cv2.conv/aten::_convolution/Convolution" type="Convolution" version="opset1">
			<data strides="1, 1" dilations="1, 1" pads_begin="0, 0" pads_end="0, 0" auto_pad="explicit" />
			<input>
				<port id="0" precision="FP32">
					<dim>1</dim>
					<dim>96</dim>
					<dim>40</dim>
					<dim>40</dim>
				</port>
				<port id="1" precision="FP32">
					<dim>128</dim>
					<dim>96</dim>
					<dim>1</dim>
					<dim>1</dim>
				</port>
			</input>
			<output>
				<port id="2" precision="FP32">
					<dim>1</dim>
					<dim>128</dim>
					<dim>40</dim>
					<dim>40</dim>
				</port>
			</output>
		</layer>
		<layer id="162" name="__module.model.4.cv2.conv/aten::_convolution/Reshape" type="Const" version="opset1">
			<data element_type="f32" shape="1, 128, 1, 1" offset="94084" size="512" />
			<output>
				<port id="0" precision="FP32">
					<dim>1</dim>
					<dim>128</dim>
					<dim>1</dim>
					<dim>1</dim>
				</port>
			</output>
		</layer>
		<layer id="163" name="__module.model.4.cv2.conv/aten::_convolution/Add" type="Add" version="opset1">
			<data auto_broadcast="numpy" />
			<input>
				<port id="0" precision="FP32">
					<dim>1</dim>
					<dim>128</dim>
					<dim>40</dim>
					<dim>40</dim>
				</port>
				<port id="1" precision="FP32">
					<dim>1</dim>
					<dim>128</dim>
					<dim>1</dim>
					<dim>1</dim>
				</port>
			</input>
			<output>
				<port id="2" precision="FP32" names="223_1">
					<dim>1</dim>
					<dim>128</dim>
					<dim>40</dim>
					<dim>40</dim>
				</port>
			</output>
		</layer>
		<layer id="164" name="__module.model.21.cv3.2.1.1.act/aten::silu_/Swish_10" type="Swish" version="opset4">
			<input>
				<port id="0" precision="FP32">
					<dim>1</dim>
					<dim>128</dim>
					<dim>40</dim>
					<dim>40</dim>
				</port>
			</input>
			<output>
				<port id="1" precision="FP32" names="223,input.41">
					<dim>1</dim>
					<dim>128</dim>
					<dim>40</dim>
					<dim>40</dim>
				</port>
			</output>
		</layer>
		<layer id="165" name="__module.model.21.cv3.2.1.1.act/aten::silu_/Swish_10/fq_output_0/input_low" type="Const" version="opset1">
			<data element_type="f32" shape="" offset="17368" size="4" />
			<output>
				<port id="0" precision="FP32" />
			</output>
		</layer>
		<layer id="166" name="__module.model.21.cv3.2.1.1.act/aten::silu_/Swish_10/fq_output_0/input_high" type="Const" version="opset1">
			<data element_type="f32" shape="" offset="17372" size="4" />
			<output>
				<port id="0" precision="FP32" />
			</output>
		</layer>
		<layer id="167" name="__module.model.21.cv3.2.1.1.act/aten::silu_/Swish_10/fq_output_0/output_low" type="Const" version="opset1">
			<data element_type="f32" shape="" offset="17368" size="4" />
			<output>
				<port id="0" precision="FP32" />
			</output>
		</layer>
		<layer id="168" name="__module.model.21.cv3.2.1.1.act/aten::silu_/Swish_10/fq_output_0/output_high" type="Const" version="opset1">
			<data element_type="f32" shape="" offset="17372" size="4" />
			<output>
				<port id="0" precision="FP32" />
			</output>
		</layer>
		<layer id="169" name="__module.model.21.cv3.2.1.1.act/aten::silu_/Swish_10/fq_output_0" type="FakeQuantize" version="opset1">
			<data levels="256" auto_broadcast="numpy" />
			<input>
				<port id="0" precision="FP32">
					<dim>1</dim>
					<dim>128</dim>
					<dim>40</dim>
					<dim>40</dim>
				</port>
				<port id="1" precision="FP32" />
				<port id="2" precision="FP32" />
				<port id="3" precision="FP32" />
				<port id="4" precision="FP32" />
			</input>
			<output>
				<port id="5" precision="FP32">
					<dim>1</dim>
					<dim>128</dim>
					<dim>40</dim>
					<dim>40</dim>
				</port>
			</output>
		</layer>
		<layer id="170" name="Constant_741829" type="Const" version="opset1">
			<data element_type="i8" shape="128, 128, 3, 3" offset="94596" size="147456" />
			<output>
				<port id="0" precision="I8">
					<dim>128</dim>
					<dim>128</dim>
					<dim>3</dim>
					<dim>3</dim>
				</port>
			</output>
		</layer>
		<layer id="171" name="Convert_741830" type="Convert" version="opset1">
			<data destination_type="f32" />
			<input>
				<port id="0" precision="I8">
					<dim>128</dim>
					<dim>128</dim>
					<dim>3</dim>
					<dim>3</dim>
				</port>
			</input>
			<output>
				<port id="1" precision="FP32">
					<dim>128</dim>
					<dim>128</dim>
					<dim>3</dim>
					<dim>3</dim>
				</port>
			</output>
		</layer>
		<layer id="172" name="Constant_741831" type="Const" version="opset1">
			<data element_type="f32" shape="128, 1, 1, 1" offset="242052" size="512" />
			<output>
				<port id="0" precision="FP32">
					<dim>128</dim>
					<dim>1</dim>
					<dim>1</dim>
					<dim>1</dim>
				</port>
			</output>
		</layer>
		<layer id="173" name="__module.model.5.conv/aten::_convolution/Convolution/fq_weights_1" type="Multiply" version="opset1">
			<data auto_broadcast="numpy" />
			<input>
				<port id="0" precision="FP32">
					<dim>128</dim>
					<dim>128</dim>
					<dim>3</dim>
					<dim>3</dim>
				</port>
				<port id="1" precision="FP32">
					<dim>128</dim>
					<dim>1</dim>
					<dim>1</dim>
					<dim>1</dim>
				</port>
			</input>
			<output>
				<port id="2" precision="FP32">
					<dim>128</dim>
					<dim>128</dim>
					<dim>3</dim>
					<dim>3</dim>
				</port>
			</output>
		</layer>
		<layer id="174" name="__module.model.5.conv/aten::_convolution/Convolution" type="Convolution" version="opset1">
			<data strides="2, 2" dilations="1, 1" pads_begin="1, 1" pads_end="1, 1" auto_pad="explicit" />
			<input>
				<port id="0" precision="FP32">
					<dim>1</dim>
					<dim>128</dim>
					<dim>40</dim>
					<dim>40</dim>
				</port>
				<port id="1" precision="FP32">
					<dim>128</dim>
					<dim>128</dim>
					<dim>3</dim>
					<dim>3</dim>
				</port>
			</input>
			<output>
				<port id="2" precision="FP32">
					<dim>1</dim>
					<dim>128</dim>
					<dim>20</dim>
					<dim>20</dim>
				</port>
			</output>
		</layer>
		<layer id="175" name="__module.model.5.conv/aten::_convolution/Reshape" type="Const" version="opset1">
			<data element_type="f32" shape="1, 128, 1, 1" offset="242564" size="512" />
			<output>
				<port id="0" precision="FP32">
					<dim>1</dim>
					<dim>128</dim>
					<dim>1</dim>
					<dim>1</dim>
				</port>
			</output>
		</layer>
		<layer id="176" name="__module.model.5.conv/aten::_convolution/Add" type="Add" version="opset1">
			<data auto_broadcast="numpy" />
			<input>
				<port id="0" precision="FP32">
					<dim>1</dim>
					<dim>128</dim>
					<dim>20</dim>
					<dim>20</dim>
				</port>
				<port id="1" precision="FP32">
					<dim>1</dim>
					<dim>128</dim>
					<dim>1</dim>
					<dim>1</dim>
				</port>
			</input>
			<output>
				<port id="2" precision="FP32" names="237_1">
					<dim>1</dim>
					<dim>128</dim>
					<dim>20</dim>
					<dim>20</dim>
				</port>
			</output>
		</layer>
		<layer id="177" name="__module.model.21.cv3.2.1.1.act/aten::silu_/Swish_11" type="Swish" version="opset4">
			<input>
				<port id="0" precision="FP32">
					<dim>1</dim>
					<dim>128</dim>
					<dim>20</dim>
					<dim>20</dim>
				</port>
			</input>
			<output>
				<port id="1" precision="FP32" names="237,input.45">
					<dim>1</dim>
					<dim>128</dim>
					<dim>20</dim>
					<dim>20</dim>
				</port>
			</output>
		</layer>
		<layer id="178" name="__module.model.21.cv3.2.1.1.act/aten::silu_/Swish_11/fq_output_0/input_low" type="Const" version="opset1">
			<data element_type="f32" shape="" offset="17368" size="4" />
			<output>
				<port id="0" precision="FP32" />
			</output>
		</layer>
		<layer id="179" name="__module.model.21.cv3.2.1.1.act/aten::silu_/Swish_11/fq_output_0/input_high" type="Const" version="opset1">
			<data element_type="f32" shape="" offset="243076" size="4" />
			<output>
				<port id="0" precision="FP32" />
			</output>
		</layer>
		<layer id="180" name="__module.model.21.cv3.2.1.1.act/aten::silu_/Swish_11/fq_output_0/output_low" type="Const" version="opset1">
			<data element_type="f32" shape="" offset="17368" size="4" />
			<output>
				<port id="0" precision="FP32" />
			</output>
		</layer>
		<layer id="181" name="__module.model.21.cv3.2.1.1.act/aten::silu_/Swish_11/fq_output_0/output_high" type="Const" version="opset1">
			<data element_type="f32" shape="" offset="243076" size="4" />
			<output>
				<port id="0" precision="FP32" />
			</output>
		</layer>
		<layer id="182" name="__module.model.21.cv3.2.1.1.act/aten::silu_/Swish_11/fq_output_0" type="FakeQuantize" version="opset1">
			<data levels="256" auto_broadcast="numpy" />
			<input>
				<port id="0" precision="FP32">
					<dim>1</dim>
					<dim>128</dim>
					<dim>20</dim>
					<dim>20</dim>
				</port>
				<port id="1" precision="FP32" />
				<port id="2" precision="FP32" />
				<port id="3" precision="FP32" />
				<port id="4" precision="FP32" />
			</input>
			<output>
				<port id="5" precision="FP32">
					<dim>1</dim>
					<dim>128</dim>
					<dim>20</dim>
					<dim>20</dim>
				</port>
			</output>
		</layer>
		<layer id="183" name="Constant_741833" type="Const" version="opset1">
			<data element_type="i8" shape="64, 128, 1, 1" offset="243080" size="8192" />
			<output>
				<port id="0" precision="I8">
					<dim>64</dim>
					<dim>128</dim>
					<dim>1</dim>
					<dim>1</dim>
				</port>
			</output>
		</layer>
		<layer id="184" name="Convert_741834" type="Convert" version="opset1">
			<data destination_type="f32" />
			<input>
				<port id="0" precision="I8">
					<dim>64</dim>
					<dim>128</dim>
					<dim>1</dim>
					<dim>1</dim>
				</port>
			</input>
			<output>
				<port id="1" precision="FP32">
					<dim>64</dim>
					<dim>128</dim>
					<dim>1</dim>
					<dim>1</dim>
				</port>
			</output>
		</layer>
		<layer id="185" name="Constant_741835" type="Const" version="opset1">
			<data element_type="f32" shape="64, 1, 1, 1" offset="251272" size="256" />
			<output>
				<port id="0" precision="FP32">
					<dim>64</dim>
					<dim>1</dim>
					<dim>1</dim>
					<dim>1</dim>
				</port>
			</output>
		</layer>
		<layer id="186" name="__module.model.6.cv1.conv/aten::_convolution/Convolution/fq_weights_1" type="Multiply" version="opset1">
			<data auto_broadcast="numpy" />
			<input>
				<port id="0" precision="FP32">
					<dim>64</dim>
					<dim>128</dim>
					<dim>1</dim>
					<dim>1</dim>
				</port>
				<port id="1" precision="FP32">
					<dim>64</dim>
					<dim>1</dim>
					<dim>1</dim>
					<dim>1</dim>
				</port>
			</input>
			<output>
				<port id="2" precision="FP32">
					<dim>64</dim>
					<dim>128</dim>
					<dim>1</dim>
					<dim>1</dim>
				</port>
			</output>
		</layer>
		<layer id="187" name="__module.model.6.cv1.conv/aten::_convolution/Convolution" type="Convolution" version="opset1">
			<data strides="1, 1" dilations="1, 1" pads_begin="0, 0" pads_end="0, 0" auto_pad="explicit" />
			<input>
				<port id="0" precision="FP32">
					<dim>1</dim>
					<dim>128</dim>
					<dim>20</dim>
					<dim>20</dim>
				</port>
				<port id="1" precision="FP32">
					<dim>64</dim>
					<dim>128</dim>
					<dim>1</dim>
					<dim>1</dim>
				</port>
			</input>
			<output>
				<port id="2" precision="FP32">
					<dim>1</dim>
					<dim>64</dim>
					<dim>20</dim>
					<dim>20</dim>
				</port>
			</output>
		</layer>
		<layer id="188" name="__module.model.6.cv1.conv/aten::_convolution/Reshape" type="Const" version="opset1">
			<data element_type="f32" shape="1, 64, 1, 1" offset="251528" size="256" />
			<output>
				<port id="0" precision="FP32">
					<dim>1</dim>
					<dim>64</dim>
					<dim>1</dim>
					<dim>1</dim>
				</port>
			</output>
		</layer>
		<layer id="189" name="__module.model.6.cv1.conv/aten::_convolution/Add" type="Add" version="opset1">
			<data auto_broadcast="numpy" />
			<input>
				<port id="0" precision="FP32">
					<dim>1</dim>
					<dim>64</dim>
					<dim>20</dim>
					<dim>20</dim>
				</port>
				<port id="1" precision="FP32">
					<dim>1</dim>
					<dim>64</dim>
					<dim>1</dim>
					<dim>1</dim>
				</port>
			</input>
			<output>
				<port id="2" precision="FP32" names="267_1">
					<dim>1</dim>
					<dim>64</dim>
					<dim>20</dim>
					<dim>20</dim>
				</port>
			</output>
		</layer>
		<layer id="190" name="__module.model.21.cv3.2.1.1.act/aten::silu_/Swish_12" type="Swish" version="opset4">
			<input>
				<port id="0" precision="FP32">
					<dim>1</dim>
					<dim>64</dim>
					<dim>20</dim>
					<dim>20</dim>
				</port>
			</input>
			<output>
				<port id="1" precision="FP32" names="267,input.49">
					<dim>1</dim>
					<dim>64</dim>
					<dim>20</dim>
					<dim>20</dim>
				</port>
			</output>
		</layer>
		<layer id="191" name="__module.model.21.cv3.2.1.1.act/aten::silu_/Swish_12/fq_output_0/input_low" type="Const" version="opset1">
			<data element_type="f32" shape="" offset="251784" size="4" />
			<output>
				<port id="0" precision="FP32" />
			</output>
		</layer>
		<layer id="192" name="__module.model.21.cv3.2.1.1.act/aten::silu_/Swish_12/fq_output_0/input_high" type="Const" version="opset1">
			<data element_type="f32" shape="" offset="251788" size="4" />
			<output>
				<port id="0" precision="FP32" />
			</output>
		</layer>
		<layer id="193" name="__module.model.21.cv3.2.1.1.act/aten::silu_/Swish_12/fq_output_0/output_low" type="Const" version="opset1">
			<data element_type="f32" shape="" offset="251784" size="4" />
			<output>
				<port id="0" precision="FP32" />
			</output>
		</layer>
		<layer id="194" name="__module.model.21.cv3.2.1.1.act/aten::silu_/Swish_12/fq_output_0/output_high" type="Const" version="opset1">
			<data element_type="f32" shape="" offset="251788" size="4" />
			<output>
				<port id="0" precision="FP32" />
			</output>
		</layer>
		<layer id="195" name="__module.model.21.cv3.2.1.1.act/aten::silu_/Swish_12/fq_output_0" type="FakeQuantize" version="opset1">
			<data levels="256" auto_broadcast="numpy" />
			<input>
				<port id="0" precision="FP32">
					<dim>1</dim>
					<dim>64</dim>
					<dim>20</dim>
					<dim>20</dim>
				</port>
				<port id="1" precision="FP32" />
				<port id="2" precision="FP32" />
				<port id="3" precision="FP32" />
				<port id="4" precision="FP32" />
			</input>
			<output>
				<port id="5" precision="FP32">
					<dim>1</dim>
					<dim>64</dim>
					<dim>20</dim>
					<dim>20</dim>
				</port>
			</output>
		</layer>
		<layer id="196" name="Constant_741837" type="Const" version="opset1">
			<data element_type="i8" shape="192, 64, 1, 1" offset="251792" size="12288" />
			<output>
				<port id="0" precision="I8">
					<dim>192</dim>
					<dim>64</dim>
					<dim>1</dim>
					<dim>1</dim>
				</port>
			</output>
		</layer>
		<layer id="197" name="Convert_741838" type="Convert" version="opset1">
			<data destination_type="f32" />
			<input>
				<port id="0" precision="I8">
					<dim>192</dim>
					<dim>64</dim>
					<dim>1</dim>
					<dim>1</dim>
				</port>
			</input>
			<output>
				<port id="1" precision="FP32">
					<dim>192</dim>
					<dim>64</dim>
					<dim>1</dim>
					<dim>1</dim>
				</port>
			</output>
		</layer>
		<layer id="198" name="Constant_741839" type="Const" version="opset1">
			<data element_type="f32" shape="192, 1, 1, 1" offset="264080" size="768" />
			<output>
				<port id="0" precision="FP32">
					<dim>192</dim>
					<dim>1</dim>
					<dim>1</dim>
					<dim>1</dim>
				</port>
			</output>
		</layer>
		<layer id="199" name="__module.model.6.m.0.0.attn.qkv.conv/aten::_convolution/Convolution/fq_weights_1" type="Multiply" version="opset1">
			<data auto_broadcast="numpy" />
			<input>
				<port id="0" precision="FP32">
					<dim>192</dim>
					<dim>64</dim>
					<dim>1</dim>
					<dim>1</dim>
				</port>
				<port id="1" precision="FP32">
					<dim>192</dim>
					<dim>1</dim>
					<dim>1</dim>
					<dim>1</dim>
				</port>
			</input>
			<output>
				<port id="2" precision="FP32">
					<dim>192</dim>
					<dim>64</dim>
					<dim>1</dim>
					<dim>1</dim>
				</port>
			</output>
		</layer>
		<layer id="200" name="__module.model.6.m.0.0.attn.qkv.conv/aten::_convolution/Convolution" type="Convolution" version="opset1">
			<data strides="1, 1" dilations="1, 1" pads_begin="0, 0" pads_end="0, 0" auto_pad="explicit" />
			<input>
				<port id="0" precision="FP32">
					<dim>1</dim>
					<dim>64</dim>
					<dim>20</dim>
					<dim>20</dim>
				</port>
				<port id="1" precision="FP32">
					<dim>192</dim>
					<dim>64</dim>
					<dim>1</dim>
					<dim>1</dim>
				</port>
			</input>
			<output>
				<port id="2" precision="FP32">
					<dim>1</dim>
					<dim>192</dim>
					<dim>20</dim>
					<dim>20</dim>
				</port>
			</output>
		</layer>
		<layer id="201" name="__module.model.6.m.0.0.attn.qkv.conv/aten::_convolution/Reshape" type="Const" version="opset1">
			<data element_type="f32" shape="1, 192, 1, 1" offset="264848" size="768" />
			<output>
				<port id="0" precision="FP32">
					<dim>1</dim>
					<dim>192</dim>
					<dim>1</dim>
					<dim>1</dim>
				</port>
			</output>
		</layer>
		<layer id="202" name="__module.model.6.m.0.0.attn.qkv.conv/aten::_convolution/Add" type="Add" version="opset1">
			<data auto_broadcast="numpy" />
			<input>
				<port id="0" precision="FP32">
					<dim>1</dim>
					<dim>192</dim>
					<dim>20</dim>
					<dim>20</dim>
				</port>
				<port id="1" precision="FP32">
					<dim>1</dim>
					<dim>192</dim>
					<dim>1</dim>
					<dim>1</dim>
				</port>
			</input>
			<output>
				<port id="2" precision="FP32" names="292">
					<dim>1</dim>
					<dim>192</dim>
					<dim>20</dim>
					<dim>20</dim>
				</port>
			</output>
		</layer>
		<layer id="203" name="__module.model.6.m.0.0.attn.qkv.conv/aten::_convolution/Add/fq_output_0/input_low" type="Const" version="opset1">
			<data element_type="f32" shape="" offset="265616" size="4" />
			<output>
				<port id="0" precision="FP32" />
			</output>
		</layer>
		<layer id="204" name="__module.model.6.m.0.0.attn.qkv.conv/aten::_convolution/Add/fq_output_0/input_high" type="Const" version="opset1">
			<data element_type="f32" shape="" offset="265620" size="4" />
			<output>
				<port id="0" precision="FP32" />
			</output>
		</layer>
		<layer id="205" name="__module.model.6.m.0.0.attn.qkv.conv/aten::_convolution/Add/fq_output_0/output_low" type="Const" version="opset1">
			<data element_type="f32" shape="" offset="265616" size="4" />
			<output>
				<port id="0" precision="FP32" />
			</output>
		</layer>
		<layer id="206" name="__module.model.6.m.0.0.attn.qkv.conv/aten::_convolution/Add/fq_output_0/output_high" type="Const" version="opset1">
			<data element_type="f32" shape="" offset="265620" size="4" />
			<output>
				<port id="0" precision="FP32" />
			</output>
		</layer>
		<layer id="207" name="__module.model.6.m.0.0.attn.qkv.conv/aten::_convolution/Add/fq_output_0" type="FakeQuantize" version="opset1">
			<data levels="256" auto_broadcast="numpy" />
			<input>
				<port id="0" precision="FP32">
					<dim>1</dim>
					<dim>192</dim>
					<dim>20</dim>
					<dim>20</dim>
				</port>
				<port id="1" precision="FP32" />
				<port id="2" precision="FP32" />
				<port id="3" precision="FP32" />
				<port id="4" precision="FP32" />
			</input>
			<output>
				<port id="5" precision="FP32">
					<dim>1</dim>
					<dim>192</dim>
					<dim>20</dim>
					<dim>20</dim>
				</port>
			</output>
		</layer>
		<layer id="208" name="Constant_32885" type="Const" version="opset1">
			<data element_type="i64" shape="3" offset="265624" size="24" />
			<output>
				<port id="0" precision="I64">
					<dim>3</dim>
				</port>
			</output>
		</layer>
		<layer id="209" name="__module.model.6.m.0.0.attn/aten::flatten/Reshape" type="Reshape" version="opset1">
			<data special_zero="true" />
			<input>
				<port id="0" precision="FP32">
					<dim>1</dim>
					<dim>192</dim>
					<dim>20</dim>
					<dim>20</dim>
				</port>
				<port id="1" precision="I64">
					<dim>3</dim>
				</port>
			</input>
			<output>
				<port id="2" precision="FP32" names="293">
					<dim>1</dim>
					<dim>192</dim>
					<dim>400</dim>
				</port>
			</output>
		</layer>
		<layer id="210" name="__module.model.6.m.0.0.attn/aten::transpose/ScatterElementsUpdate" type="Const" version="opset1">
			<data element_type="i32" shape="3" offset="265648" size="12" />
			<output>
				<port id="0" precision="I32">
					<dim>3</dim>
				</port>
			</output>
		</layer>
		<layer id="211" name="__module.model.6.m.0.0.attn/aten::transpose/Transpose" type="Transpose" version="opset1">
			<input>
				<port id="0" precision="FP32">
					<dim>1</dim>
					<dim>192</dim>
					<dim>400</dim>
				</port>
				<port id="1" precision="I32">
					<dim>3</dim>
				</port>
			</input>
			<output>
				<port id="2" precision="FP32" names="294,qkv.1">
					<dim>1</dim>
					<dim>400</dim>
					<dim>192</dim>
				</port>
			</output>
		</layer>
		<layer id="212" name="ShapeOf_32643" type="ShapeOf" version="opset3">
			<data output_type="i64" />
			<input>
				<port id="0" precision="FP32">
					<dim>1</dim>
					<dim>192</dim>
					<dim>20</dim>
					<dim>20</dim>
				</port>
			</input>
			<output>
				<port id="1" precision="I64">
					<dim>4</dim>
				</port>
			</output>
		</layer>
		<layer id="213" name="Constant_32644" type="Const" version="opset1">
			<data element_type="i64" shape="" offset="265660" size="8" />
			<output>
				<port id="0" precision="I64" />
			</output>
		</layer>
		<layer id="214" name="Constant_32645" type="Const" version="opset1">
			<data element_type="i64" shape="" offset="265660" size="8" />
			<output>
				<port id="0" precision="I64" />
			</output>
		</layer>
		<layer id="215" name="Gather_32646" type="Gather" version="opset8">
			<data batch_dims="0" />
			<input>
				<port id="0" precision="I64">
					<dim>4</dim>
				</port>
				<port id="1" precision="I64" />
				<port id="2" precision="I64" />
			</input>
			<output>
				<port id="3" precision="I64" names="276,508" />
			</output>
		</layer>
		<layer id="216" name="Constant_21695" type="Const" version="opset1">
			<data element_type="i64" shape="1" offset="265668" size="8" />
			<output>
				<port id="0" precision="I64">
					<dim>1</dim>
				</port>
			</output>
		</layer>
		<layer id="217" name="Reshape_32599" type="Reshape" version="opset1">
			<data special_zero="false" />
			<input>
				<port id="0" precision="I64" />
				<port id="1" precision="I64">
					<dim>1</dim>
				</port>
			</input>
			<output>
				<port id="2" precision="I64">
					<dim>1</dim>
				</port>
			</output>
		</layer>
		<layer id="218" name="Constant_32601" type="Const" version="opset1">
			<data element_type="i64" shape="1" offset="265676" size="8" />
			<output>
				<port id="0" precision="I64">
					<dim>1</dim>
				</port>
			</output>
		</layer>
		<layer id="219" name="__module.model.6.m.0.0.attn/aten::mul/Multiply" type="Multiply" version="opset1">
			<data auto_broadcast="numpy" />
			<input>
				<port id="0" precision="I64">
					<dim>1</dim>
				</port>
				<port id="1" precision="I64">
					<dim>1</dim>
				</port>
			</input>
			<output>
				<port id="2" precision="I64" names="295,296,527,528">
					<dim>1</dim>
				</port>
			</output>
		</layer>
		<layer id="220" name="__module.model.6.m.0.0.attn/aten::size/ShapeOf" type="ShapeOf" version="opset3">
			<data output_type="i64" />
			<input>
				<port id="0" precision="FP32">
					<dim>1</dim>
					<dim>64</dim>
					<dim>20</dim>
					<dim>20</dim>
				</port>
			</input>
			<output>
				<port id="1" precision="I64">
					<dim>4</dim>
				</port>
			</output>
		</layer>
		<layer id="221" name="Constant_32649" type="Const" version="opset1">
			<data element_type="i64" shape="" offset="265684" size="8" />
			<output>
				<port id="0" precision="I64" />
			</output>
		</layer>
		<layer id="222" name="Constant_32650" type="Const" version="opset1">
			<data element_type="i64" shape="" offset="265660" size="8" />
			<output>
				<port id="0" precision="I64" />
			</output>
		</layer>
		<layer id="223" name="Gather_32651" type="Gather" version="opset8">
			<data batch_dims="0" />
			<input>
				<port id="0" precision="I64">
					<dim>4</dim>
				</port>
				<port id="1" precision="I64" />
				<port id="2" precision="I64" />
			</input>
			<output>
				<port id="3" precision="I64" names="280,512" />
			</output>
		</layer>
		<layer id="224" name="Constant_32654" type="Const" version="opset1">
			<data element_type="i64" shape="" offset="265692" size="8" />
			<output>
				<port id="0" precision="I64" />
			</output>
		</layer>
		<layer id="225" name="Constant_32655" type="Const" version="opset1">
			<data element_type="i64" shape="" offset="265660" size="8" />
			<output>
				<port id="0" precision="I64" />
			</output>
		</layer>
		<layer id="226" name="Gather_32656" type="Gather" version="opset8">
			<data batch_dims="0" />
			<input>
				<port id="0" precision="I64">
					<dim>4</dim>
				</port>
				<port id="1" precision="I64" />
				<port id="2" precision="I64" />
			</input>
			<output>
				<port id="3" precision="I64" names="282,514" />
			</output>
		</layer>
		<layer id="227" name="__module.model.6.m.0.0.attn/aten::mul/Multiply_1" type="Multiply" version="opset1">
			<data auto_broadcast="numpy" />
			<input>
				<port id="0" precision="I64" />
				<port id="1" precision="I64" />
			</input>
			<output>
				<port id="2" precision="I64" names="284,516" />
			</output>
		</layer>
		<layer id="228" name="Constant_671" type="Const" version="opset1">
			<data element_type="i64" shape="" offset="265676" size="8" />
			<output>
				<port id="0" precision="I64" names="242" />
			</output>
		</layer>
		<layer id="229" name="__module.model.6.m.0.0.attn/aten::floor_divide/Divide" type="Divide" version="opset1">
			<data auto_broadcast="numpy" m_pythondiv="true" />
			<input>
				<port id="0" precision="I64" />
				<port id="1" precision="I64" />
			</input>
			<output>
				<port id="2" precision="I64" />
			</output>
		</layer>
		<layer id="230" name="__module.model.6.m.0.0.attn/aten::floor_divide/Floor" type="Floor" version="opset1">
			<input>
				<port id="0" precision="I64" />
			</input>
			<output>
				<port id="1" precision="I64" names="297,298,529,530" />
			</output>
		</layer>
		<layer id="231" name="Constant_21696" type="Const" version="opset1">
			<data element_type="i64" shape="1" offset="265668" size="8" />
			<output>
				<port id="0" precision="I64">
					<dim>1</dim>
				</port>
			</output>
		</layer>
		<layer id="232" name="__module.model.6.m.0.0.attn/prim::ListConstruct/Reshape_0" type="Reshape" version="opset1">
			<data special_zero="false" />
			<input>
				<port id="0" precision="I64" />
				<port id="1" precision="I64">
					<dim>1</dim>
				</port>
			</input>
			<output>
				<port id="2" precision="I64">
					<dim>1</dim>
				</port>
			</output>
		</layer>
		<layer id="233" name="Constant_33002" type="Const" version="opset1">
			<data element_type="i64" shape="1" offset="23532" size="8" />
			<output>
				<port id="0" precision="I64">
					<dim>1</dim>
				</port>
			</output>
		</layer>
		<layer id="234" name="__module.model.6.m.0.0.attn/aten::size/Constant_3" type="Const" version="opset1">
			<data element_type="i32" shape="" offset="16800" size="4" />
			<output>
				<port id="0" precision="I32" />
			</output>
		</layer>
		<layer id="235" name="__module.model.6.m.0.0.attn/aten::size/Gather_3" type="Gather" version="opset8">
			<data batch_dims="0" />
			<input>
				<port id="0" precision="I64">
					<dim>4</dim>
				</port>
				<port id="1" precision="I64">
					<dim>1</dim>
				</port>
				<port id="2" precision="I32" />
			</input>
			<output>
				<port id="3" precision="I64" names="278">
					<dim>1</dim>
				</port>
			</output>
		</layer>
		<layer id="236" name="Constant_32604" type="Const" version="opset1">
			<data element_type="i64" shape="1" offset="265692" size="8" />
			<output>
				<port id="0" precision="I64">
					<dim>1</dim>
				</port>
			</output>
		</layer>
		<layer id="237" name="__module.model.6.m.0.0.attn/aten::mul/Multiply_2" type="Multiply" version="opset1">
			<data auto_broadcast="numpy" />
			<input>
				<port id="0" precision="I64">
					<dim>1</dim>
				</port>
				<port id="1" precision="I64">
					<dim>1</dim>
				</port>
			</input>
			<output>
				<port id="2" precision="I64" names="299,300">
					<dim>1</dim>
				</port>
			</output>
		</layer>
		<layer id="238" name="__module.model.6.m.0.0.attn/prim::ListConstruct/Concat" type="Concat" version="opset1">
			<data axis="0" />
			<input>
				<port id="0" precision="I64">
					<dim>1</dim>
				</port>
				<port id="1" precision="I64">
					<dim>1</dim>
				</port>
				<port id="2" precision="I64">
					<dim>1</dim>
				</port>
			</input>
			<output>
				<port id="3" precision="I64" names="301">
					<dim>3</dim>
				</port>
			</output>
		</layer>
		<layer id="239" name="__module.model.6.m.0.0.attn/aten::reshape/Reshape" type="Reshape" version="opset1">
			<data special_zero="false" />
			<input>
				<port id="0" precision="FP32">
					<dim>1</dim>
					<dim>400</dim>
					<dim>192</dim>
				</port>
				<port id="1" precision="I64">
					<dim>3</dim>
				</port>
			</input>
			<output>
				<port id="2" precision="FP32" names="302,qkv.3">
					<dim>4</dim>
					<dim>100</dim>
					<dim>192</dim>
				</port>
			</output>
		</layer>
		<layer id="240" name="Constant_32886" type="Const" version="opset1">
			<data element_type="i64" shape="4" offset="265700" size="32" />
			<output>
				<port id="0" precision="I64">
					<dim>4</dim>
				</port>
			</output>
		</layer>
		<layer id="241" name="__module.model.6.m.0.0.attn/aten::view/Reshape" type="Reshape" version="opset1">
			<data special_zero="true" />
			<input>
				<port id="0" precision="FP32">
					<dim>4</dim>
					<dim>100</dim>
					<dim>192</dim>
				</port>
				<port id="1" precision="I64">
					<dim>4</dim>
				</port>
			</input>
			<output>
				<port id="2" precision="FP32" names="308">
					<dim>4</dim>
					<dim>100</dim>
					<dim>2</dim>
					<dim>96</dim>
				</port>
			</output>
		</layer>
		<layer id="242" name="Constant_1163" type="Const" version="opset1">
			<data element_type="i64" shape="4" offset="265732" size="32" />
			<output>
				<port id="0" precision="I64" names="309">
					<dim>4</dim>
				</port>
			</output>
		</layer>
		<layer id="243" name="__module.model.6.m.0.0.attn/aten::permute/Transpose" type="Transpose" version="opset1">
			<input>
				<port id="0" precision="FP32">
					<dim>4</dim>
					<dim>100</dim>
					<dim>2</dim>
					<dim>96</dim>
				</port>
				<port id="1" precision="I64">
					<dim>4</dim>
				</port>
			</input>
			<output>
				<port id="2" precision="FP32" names="310">
					<dim>4</dim>
					<dim>2</dim>
					<dim>96</dim>
					<dim>100</dim>
				</port>
			</output>
		</layer>
		<layer id="244" name="239" type="Const" version="opset1">
			<data element_type="i64" shape="" offset="265684" size="8" />
			<output>
				<port id="0" precision="I64" names="239" />
			</output>
		</layer>
		<layer id="245" name="Constant_1170" type="Const" version="opset1">
			<data element_type="i64" shape="3" offset="265764" size="24" />
			<output>
				<port id="0" precision="I64" names="311">
					<dim>3</dim>
				</port>
			</output>
		</layer>
		<layer id="246" name="__module.model.6.m.0.0.attn/prim::ListUnpack" type="VariadicSplit" version="opset1">
			<input>
				<port id="0" precision="FP32">
					<dim>4</dim>
					<dim>2</dim>
					<dim>96</dim>
					<dim>100</dim>
				</port>
				<port id="1" precision="I64" />
				<port id="2" precision="I64">
					<dim>3</dim>
				</port>
			</input>
			<output>
				<port id="3" precision="FP32" names="313,q.1">
					<dim>4</dim>
					<dim>2</dim>
					<dim>32</dim>
					<dim>100</dim>
				</port>
				<port id="4" precision="FP32" names="314,k.1">
					<dim>4</dim>
					<dim>2</dim>
					<dim>32</dim>
					<dim>100</dim>
				</port>
				<port id="5" precision="FP32" names="315,v.1">
					<dim>4</dim>
					<dim>2</dim>
					<dim>32</dim>
					<dim>100</dim>
				</port>
			</output>
		</layer>
		<layer id="247" name="Constant_31038" type="Const" version="opset1">
			<data element_type="f32" shape="1, 1, 1, 1" offset="265788" size="4" />
			<output>
				<port id="0" precision="FP32">
					<dim>1</dim>
					<dim>1</dim>
					<dim>1</dim>
					<dim>1</dim>
				</port>
			</output>
		</layer>
		<layer id="248" name="Multiply_30776" type="Multiply" version="opset1">
			<data auto_broadcast="numpy" />
			<input>
				<port id="0" precision="FP32">
					<dim>4</dim>
					<dim>2</dim>
					<dim>32</dim>
					<dim>100</dim>
				</port>
				<port id="1" precision="FP32">
					<dim>1</dim>
					<dim>1</dim>
					<dim>1</dim>
					<dim>1</dim>
				</port>
			</input>
			<output>
				<port id="2" precision="FP32">
					<dim>4</dim>
					<dim>2</dim>
					<dim>32</dim>
					<dim>100</dim>
				</port>
			</output>
		</layer>
		<layer id="249" name="Multiply_30776/fq_output_0/input_low" type="Const" version="opset1">
			<data element_type="f32" shape="" offset="265792" size="4" />
			<output>
				<port id="0" precision="FP32" />
			</output>
		</layer>
		<layer id="250" name="Multiply_30776/fq_output_0/input_high" type="Const" version="opset1">
			<data element_type="f32" shape="" offset="265796" size="4" />
			<output>
				<port id="0" precision="FP32" />
			</output>
		</layer>
		<layer id="251" name="Multiply_30776/fq_output_0/output_low" type="Const" version="opset1">
			<data element_type="f32" shape="" offset="265792" size="4" />
			<output>
				<port id="0" precision="FP32" />
			</output>
		</layer>
		<layer id="252" name="Multiply_30776/fq_output_0/output_high" type="Const" version="opset1">
			<data element_type="f32" shape="" offset="265796" size="4" />
			<output>
				<port id="0" precision="FP32" />
			</output>
		</layer>
		<layer id="253" name="Multiply_30776/fq_output_0" type="FakeQuantize" version="opset1">
			<data levels="256" auto_broadcast="numpy" />
			<input>
				<port id="0" precision="FP32">
					<dim>4</dim>
					<dim>2</dim>
					<dim>32</dim>
					<dim>100</dim>
				</port>
				<port id="1" precision="FP32" />
				<port id="2" precision="FP32" />
				<port id="3" precision="FP32" />
				<port id="4" precision="FP32" />
			</input>
			<output>
				<port id="5" precision="FP32">
					<dim>4</dim>
					<dim>2</dim>
					<dim>32</dim>
					<dim>100</dim>
				</port>
			</output>
		</layer>
		<layer id="254" name="__module.model.6.m.0.0.attn/aten::mul/Multiply_3" type="MatMul" version="opset1">
			<data transpose_a="true" transpose_b="false" />
			<input>
				<port id="0" precision="FP32">
					<dim>4</dim>
					<dim>2</dim>
					<dim>32</dim>
					<dim>100</dim>
				</port>
				<port id="1" precision="FP32">
					<dim>4</dim>
					<dim>2</dim>
					<dim>32</dim>
					<dim>100</dim>
				</port>
			</input>
			<output>
				<port id="2" precision="FP32" names="318,attn.1">
					<dim>4</dim>
					<dim>2</dim>
					<dim>100</dim>
					<dim>100</dim>
				</port>
			</output>
		</layer>
		<layer id="255" name="__module.model.6.m.0.0.attn/aten::softmax/Softmax" type="SoftMax" version="opset8">
			<data axis="-1" />
			<input>
				<port id="0" precision="FP32">
					<dim>4</dim>
					<dim>2</dim>
					<dim>100</dim>
					<dim>100</dim>
				</port>
			</input>
			<output>
				<port id="1" precision="FP32" names="319,attn.3">
					<dim>4</dim>
					<dim>2</dim>
					<dim>100</dim>
					<dim>100</dim>
				</port>
			</output>
		</layer>
		<layer id="256" name="__module.model.6.m.0.0.attn/aten::softmax/Softmax/fq_output_0/input_low" type="Const" version="opset1">
			<data element_type="f32" shape="" offset="16800" size="4" />
			<output>
				<port id="0" precision="FP32" />
			</output>
		</layer>
		<layer id="257" name="__module.model.6.m.0.0.attn/aten::softmax/Softmax/fq_output_0/input_high" type="Const" version="opset1">
			<data element_type="f32" shape="" offset="265800" size="4" />
			<output>
				<port id="0" precision="FP32" />
			</output>
		</layer>
		<layer id="258" name="__module.model.6.m.0.0.attn/aten::softmax/Softmax/fq_output_0/output_low" type="Const" version="opset1">
			<data element_type="f32" shape="" offset="16800" size="4" />
			<output>
				<port id="0" precision="FP32" />
			</output>
		</layer>
		<layer id="259" name="__module.model.6.m.0.0.attn/aten::softmax/Softmax/fq_output_0/output_high" type="Const" version="opset1">
			<data element_type="f32" shape="" offset="265800" size="4" />
			<output>
				<port id="0" precision="FP32" />
			</output>
		</layer>
		<layer id="260" name="__module.model.6.m.0.0.attn/aten::softmax/Softmax/fq_output_0" type="FakeQuantize" version="opset1">
			<data levels="256" auto_broadcast="numpy" />
			<input>
				<port id="0" precision="FP32">
					<dim>4</dim>
					<dim>2</dim>
					<dim>100</dim>
					<dim>100</dim>
				</port>
				<port id="1" precision="FP32" />
				<port id="2" precision="FP32" />
				<port id="3" precision="FP32" />
				<port id="4" precision="FP32" />
			</input>
			<output>
				<port id="5" precision="FP32">
					<dim>4</dim>
					<dim>2</dim>
					<dim>100</dim>
					<dim>100</dim>
				</port>
			</output>
		</layer>
		<layer id="261" name="__module.model.6.m.0.0.attn/aten::matmul/MatMul_1" type="MatMul" version="opset1">
			<data transpose_a="false" transpose_b="true" />
			<input>
				<port id="0" precision="FP32">
					<dim>4</dim>
					<dim>2</dim>
					<dim>32</dim>
					<dim>100</dim>
				</port>
				<port id="1" precision="FP32">
					<dim>4</dim>
					<dim>2</dim>
					<dim>100</dim>
					<dim>100</dim>
				</port>
			</input>
			<output>
				<port id="2" precision="FP32" names="321,x.5">
					<dim>4</dim>
					<dim>2</dim>
					<dim>32</dim>
					<dim>100</dim>
				</port>
			</output>
		</layer>
		<layer id="262" name="__module.model.6.m.0.0.attn/aten::matmul/MatMul_1/fq_output_0/input_low" type="Const" version="opset1">
			<data element_type="f32" shape="" offset="265804" size="4" />
			<output>
				<port id="0" precision="FP32" />
			</output>
		</layer>
		<layer id="263" name="__module.model.6.m.0.0.attn/aten::matmul/MatMul_1/fq_output_0/input_high" type="Const" version="opset1">
			<data element_type="f32" shape="" offset="265808" size="4" />
			<output>
				<port id="0" precision="FP32" />
			</output>
		</layer>
		<layer id="264" name="__module.model.6.m.0.0.attn/aten::matmul/MatMul_1/fq_output_0/output_low" type="Const" version="opset1">
			<data element_type="f32" shape="" offset="265804" size="4" />
			<output>
				<port id="0" precision="FP32" />
			</output>
		</layer>
		<layer id="265" name="__module.model.6.m.0.0.attn/aten::matmul/MatMul_1/fq_output_0/output_high" type="Const" version="opset1">
			<data element_type="f32" shape="" offset="265808" size="4" />
			<output>
				<port id="0" precision="FP32" />
			</output>
		</layer>
		<layer id="266" name="__module.model.6.m.0.0.attn/aten::matmul/MatMul_1/fq_output_0" type="FakeQuantize" version="opset1">
			<data levels="256" auto_broadcast="numpy" />
			<input>
				<port id="0" precision="FP32">
					<dim>4</dim>
					<dim>2</dim>
					<dim>32</dim>
					<dim>100</dim>
				</port>
				<port id="1" precision="FP32" />
				<port id="2" precision="FP32" />
				<port id="3" precision="FP32" />
				<port id="4" precision="FP32" />
			</input>
			<output>
				<port id="5" precision="FP32">
					<dim>4</dim>
					<dim>2</dim>
					<dim>32</dim>
					<dim>100</dim>
				</port>
			</output>
		</layer>
		<layer id="267" name="Constant_1306" type="Const" version="opset1">
			<data element_type="i64" shape="4" offset="265812" size="32" />
			<output>
				<port id="0" precision="I64" names="322">
					<dim>4</dim>
				</port>
			</output>
		</layer>
		<layer id="268" name="__module.model.6.m.0.0.attn/aten::permute/Transpose_1" type="Transpose" version="opset1">
			<input>
				<port id="0" precision="FP32">
					<dim>4</dim>
					<dim>2</dim>
					<dim>32</dim>
					<dim>100</dim>
				</port>
				<port id="1" precision="I64">
					<dim>4</dim>
				</port>
			</input>
			<output>
				<port id="2" precision="FP32" names="323,x.7">
					<dim>4</dim>
					<dim>100</dim>
					<dim>2</dim>
					<dim>32</dim>
				</port>
			</output>
		</layer>
		<layer id="269" name="ShapeOf_32661" type="ShapeOf" version="opset3">
			<data output_type="i64" />
			<input>
				<port id="0" precision="FP32">
					<dim>4</dim>
					<dim>100</dim>
					<dim>192</dim>
				</port>
			</input>
			<output>
				<port id="1" precision="I64">
					<dim>3</dim>
				</port>
			</output>
		</layer>
		<layer id="270" name="Constant_32662" type="Const" version="opset1">
			<data element_type="i64" shape="" offset="265660" size="8" />
			<output>
				<port id="0" precision="I64" />
			</output>
		</layer>
		<layer id="271" name="Constant_32663" type="Const" version="opset1">
			<data element_type="i64" shape="" offset="265660" size="8" />
			<output>
				<port id="0" precision="I64" />
			</output>
		</layer>
		<layer id="272" name="Gather_32664" type="Gather" version="opset8">
			<data batch_dims="0" />
			<input>
				<port id="0" precision="I64">
					<dim>3</dim>
				</port>
				<port id="1" precision="I64" />
				<port id="2" precision="I64" />
			</input>
			<output>
				<port id="3" precision="I64" names="303" />
			</output>
		</layer>
		<layer id="273" name="__module.model.6.m.0.0.attn/aten::floor_divide/Divide_1" type="Divide" version="opset1">
			<data auto_broadcast="numpy" m_pythondiv="true" />
			<input>
				<port id="0" precision="I64" />
				<port id="1" precision="I64" />
			</input>
			<output>
				<port id="2" precision="I64" />
			</output>
		</layer>
		<layer id="274" name="__module.model.6.m.0.0.attn/aten::floor_divide/Floor_1" type="Floor" version="opset1">
			<input>
				<port id="0" precision="I64" />
			</input>
			<output>
				<port id="1" precision="I64" names="326,327,332,333" />
			</output>
		</layer>
		<layer id="275" name="Constant_21702" type="Const" version="opset1">
			<data element_type="i64" shape="1" offset="265668" size="8" />
			<output>
				<port id="0" precision="I64">
					<dim>1</dim>
				</port>
			</output>
		</layer>
		<layer id="276" name="__module.model.6.m.0.0.attn/prim::ListConstruct/Reshape_4" type="Reshape" version="opset1">
			<data special_zero="false" />
			<input>
				<port id="0" precision="I64" />
				<port id="1" precision="I64">
					<dim>1</dim>
				</port>
			</input>
			<output>
				<port id="2" precision="I64">
					<dim>1</dim>
				</port>
			</output>
		</layer>
		<layer id="277" name="Constant_33005" type="Const" version="opset1">
			<data element_type="i64" shape="1" offset="23532" size="8" />
			<output>
				<port id="0" precision="I64">
					<dim>1</dim>
				</port>
			</output>
		</layer>
		<layer id="278" name="Constant_32671" type="Const" version="opset1">
			<data element_type="i64" shape="" offset="265660" size="8" />
			<output>
				<port id="0" precision="I64" />
			</output>
		</layer>
		<layer id="279" name="Gather_32672" type="Gather" version="opset8">
			<data batch_dims="0" />
			<input>
				<port id="0" precision="I64">
					<dim>3</dim>
				</port>
				<port id="1" precision="I64">
					<dim>1</dim>
				</port>
				<port id="2" precision="I64" />
			</input>
			<output>
				<port id="3" precision="I64" names="305">
					<dim>1</dim>
				</port>
			</output>
		</layer>
		<layer id="280" name="Constant_32607" type="Const" version="opset1">
			<data element_type="i64" shape="1" offset="265676" size="8" />
			<output>
				<port id="0" precision="I64">
					<dim>1</dim>
				</port>
			</output>
		</layer>
		<layer id="281" name="__module.model.6.m.0.0.attn/aten::mul/Multiply_4" type="Multiply" version="opset1">
			<data auto_broadcast="numpy" />
			<input>
				<port id="0" precision="I64">
					<dim>1</dim>
				</port>
				<port id="1" precision="I64">
					<dim>1</dim>
				</port>
			</input>
			<output>
				<port id="2" precision="I64" names="328,329,334,335">
					<dim>1</dim>
				</port>
			</output>
		</layer>
		<layer id="282" name="__module.model.6.m.0.0.attn/prim::ListConstruct/Concat_2" type="Concat" version="opset1">
			<data axis="0" />
			<input>
				<port id="0" precision="I64">
					<dim>1</dim>
				</port>
				<port id="1" precision="I64">
					<dim>1</dim>
				</port>
				<port id="2" precision="I64">
					<dim>1</dim>
				</port>
			</input>
			<output>
				<port id="3" precision="I64" names="330,336">
					<dim>3</dim>
				</port>
			</output>
		</layer>
		<layer id="283" name="__module.model.6.m.0.0.attn/aten::reshape/Reshape_1" type="Reshape" version="opset1">
			<data special_zero="false" />
			<input>
				<port id="0" precision="FP32">
					<dim>4</dim>
					<dim>100</dim>
					<dim>2</dim>
					<dim>32</dim>
				</port>
				<port id="1" precision="I64">
					<dim>3</dim>
				</port>
			</input>
			<output>
				<port id="2" precision="FP32" names="331,x.9">
					<dim>1</dim>
					<dim>400</dim>
					<dim>64</dim>
				</port>
			</output>
		</layer>
		<layer id="284" name="ShapeOf_32677" type="ShapeOf" version="opset3">
			<data output_type="i64" />
			<input>
				<port id="0" precision="FP32">
					<dim>1</dim>
					<dim>400</dim>
					<dim>64</dim>
				</port>
			</input>
			<output>
				<port id="1" precision="I64">
					<dim>3</dim>
				</port>
			</output>
		</layer>
		<layer id="285" name="Constant_32678" type="Const" version="opset1">
			<data element_type="i64" shape="1" offset="265660" size="8" />
			<output>
				<port id="0" precision="I64">
					<dim>1</dim>
				</port>
			</output>
		</layer>
		<layer id="286" name="Constant_32679" type="Const" version="opset1">
			<data element_type="i64" shape="" offset="265660" size="8" />
			<output>
				<port id="0" precision="I64" />
			</output>
		</layer>
		<layer id="287" name="Gather_32680" type="Gather" version="opset8">
			<data batch_dims="0" />
			<input>
				<port id="0" precision="I64">
					<dim>3</dim>
				</port>
				<port id="1" precision="I64">
					<dim>1</dim>
				</port>
				<port id="2" precision="I64" />
			</input>
			<output>
				<port id="3" precision="I64" names="338">
					<dim>1</dim>
				</port>
			</output>
		</layer>
		<layer id="288" name="Constant_32682" type="Const" version="opset1">
			<data element_type="i64" shape="1" offset="23532" size="8" />
			<output>
				<port id="0" precision="I64">
					<dim>1</dim>
				</port>
			</output>
		</layer>
		<layer id="289" name="Reshape_32683" type="Reshape" version="opset1">
			<data special_zero="false" />
			<input>
				<port id="0" precision="I64" />
				<port id="1" precision="I64">
					<dim>1</dim>
				</port>
			</input>
			<output>
				<port id="2" precision="I64">
					<dim>1</dim>
				</port>
			</output>
		</layer>
		<layer id="290" name="Constant_32685" type="Const" version="opset1">
			<data element_type="i64" shape="1" offset="23532" size="8" />
			<output>
				<port id="0" precision="I64">
					<dim>1</dim>
				</port>
			</output>
		</layer>
		<layer id="291" name="Reshape_32686" type="Reshape" version="opset1">
			<data special_zero="false" />
			<input>
				<port id="0" precision="I64" />
				<port id="1" precision="I64">
					<dim>1</dim>
				</port>
			</input>
			<output>
				<port id="2" precision="I64">
					<dim>1</dim>
				</port>
			</output>
		</layer>
		<layer id="292" name="__module.model.6.m.0.0.attn/prim::ListConstruct/Concat_3" type="Concat" version="opset1">
			<data axis="0" />
			<input>
				<port id="0" precision="I64">
					<dim>1</dim>
				</port>
				<port id="1" precision="I64">
					<dim>1</dim>
				</port>
				<port id="2" precision="I64">
					<dim>1</dim>
				</port>
				<port id="3" precision="I64">
					<dim>1</dim>
				</port>
			</input>
			<output>
				<port id="4" precision="I64" names="339,343">
					<dim>4</dim>
				</port>
			</output>
		</layer>
		<layer id="293" name="__module.model.6.m.0.0.attn/aten::reshape/Reshape_2" type="Reshape" version="opset1">
			<data special_zero="false" />
			<input>
				<port id="0" precision="FP32">
					<dim>1</dim>
					<dim>400</dim>
					<dim>64</dim>
				</port>
				<port id="1" precision="I64">
					<dim>4</dim>
				</port>
			</input>
			<output>
				<port id="2" precision="FP32" names="340">
					<dim>1</dim>
					<dim>20</dim>
					<dim>20</dim>
					<dim>64</dim>
				</port>
			</output>
		</layer>
		<layer id="294" name="Constant_1356" type="Const" version="opset1">
			<data element_type="i64" shape="4" offset="265812" size="32" />
			<output>
				<port id="0" precision="I64" names="341">
					<dim>4</dim>
				</port>
			</output>
		</layer>
		<layer id="295" name="__module.model.6.m.0.0.attn/aten::permute/Transpose_2" type="Transpose" version="opset1">
			<input>
				<port id="0" precision="FP32">
					<dim>1</dim>
					<dim>20</dim>
					<dim>20</dim>
					<dim>64</dim>
				</port>
				<port id="1" precision="I64">
					<dim>4</dim>
				</port>
			</input>
			<output>
				<port id="2" precision="FP32" names="342,x.11">
					<dim>1</dim>
					<dim>64</dim>
					<dim>20</dim>
					<dim>20</dim>
				</port>
			</output>
		</layer>
		<layer id="296" name="Constant_1314" type="Const" version="opset1">
			<data element_type="i64" shape="4" offset="265812" size="32" />
			<output>
				<port id="0" precision="I64" names="324">
					<dim>4</dim>
				</port>
			</output>
		</layer>
		<layer id="297" name="__module.model.6.m.0.0.attn/aten::permute/Transpose_3" type="Transpose" version="opset1">
			<input>
				<port id="0" precision="FP32">
					<dim>4</dim>
					<dim>2</dim>
					<dim>32</dim>
					<dim>100</dim>
				</port>
				<port id="1" precision="I64">
					<dim>4</dim>
				</port>
			</input>
			<output>
				<port id="2" precision="FP32" names="325,v.3">
					<dim>4</dim>
					<dim>100</dim>
					<dim>2</dim>
					<dim>32</dim>
				</port>
			</output>
		</layer>
		<layer id="298" name="__module.model.6.m.0.0.attn/aten::reshape/Reshape_3" type="Reshape" version="opset1">
			<data special_zero="false" />
			<input>
				<port id="0" precision="FP32">
					<dim>4</dim>
					<dim>100</dim>
					<dim>2</dim>
					<dim>32</dim>
				</port>
				<port id="1" precision="I64">
					<dim>3</dim>
				</port>
			</input>
			<output>
				<port id="2" precision="FP32" names="337,v.5">
					<dim>1</dim>
					<dim>400</dim>
					<dim>64</dim>
				</port>
			</output>
		</layer>
		<layer id="299" name="__module.model.6.m.0.0.attn/aten::reshape/Reshape_4" type="Reshape" version="opset1">
			<data special_zero="false" />
			<input>
				<port id="0" precision="FP32">
					<dim>1</dim>
					<dim>400</dim>
					<dim>64</dim>
				</port>
				<port id="1" precision="I64">
					<dim>4</dim>
				</port>
			</input>
			<output>
				<port id="2" precision="FP32" names="344">
					<dim>1</dim>
					<dim>20</dim>
					<dim>20</dim>
					<dim>64</dim>
				</port>
			</output>
		</layer>
		<layer id="300" name="Constant_1367" type="Const" version="opset1">
			<data element_type="i64" shape="4" offset="265812" size="32" />
			<output>
				<port id="0" precision="I64" names="345">
					<dim>4</dim>
				</port>
			</output>
		</layer>
		<layer id="301" name="__module.model.6.m.0.0.attn/aten::permute/Transpose_4" type="Transpose" version="opset1">
			<input>
				<port id="0" precision="FP32">
					<dim>1</dim>
					<dim>20</dim>
					<dim>20</dim>
					<dim>64</dim>
				</port>
				<port id="1" precision="I64">
					<dim>4</dim>
				</port>
			</input>
			<output>
				<port id="2" precision="FP32" names="346,input.51">
					<dim>1</dim>
					<dim>64</dim>
					<dim>20</dim>
					<dim>20</dim>
				</port>
			</output>
		</layer>
		<layer id="302" name="Constant_741841" type="Const" version="opset1">
			<data element_type="i8" shape="64, 1, 1, 7, 7" offset="265844" size="3136" />
			<output>
				<port id="0" precision="I8">
					<dim>64</dim>
					<dim>1</dim>
					<dim>1</dim>
					<dim>7</dim>
					<dim>7</dim>
				</port>
			</output>
		</layer>
		<layer id="303" name="Convert_741842" type="Convert" version="opset1">
			<data destination_type="f32" />
			<input>
				<port id="0" precision="I8">
					<dim>64</dim>
					<dim>1</dim>
					<dim>1</dim>
					<dim>7</dim>
					<dim>7</dim>
				</port>
			</input>
			<output>
				<port id="1" precision="FP32">
					<dim>64</dim>
					<dim>1</dim>
					<dim>1</dim>
					<dim>7</dim>
					<dim>7</dim>
				</port>
			</output>
		</layer>
		<layer id="304" name="Constant_741843" type="Const" version="opset1">
			<data element_type="f32" shape="64, 1, 1, 1, 1" offset="268980" size="256" />
			<output>
				<port id="0" precision="FP32">
					<dim>64</dim>
					<dim>1</dim>
					<dim>1</dim>
					<dim>1</dim>
					<dim>1</dim>
				</port>
			</output>
		</layer>
		<layer id="305" name="__module.model.6.m.0.0.attn.pe.conv/aten::_convolution/GroupConvolution/fq_weights_1" type="Multiply" version="opset1">
			<data auto_broadcast="numpy" />
			<input>
				<port id="0" precision="FP32">
					<dim>64</dim>
					<dim>1</dim>
					<dim>1</dim>
					<dim>7</dim>
					<dim>7</dim>
				</port>
				<port id="1" precision="FP32">
					<dim>64</dim>
					<dim>1</dim>
					<dim>1</dim>
					<dim>1</dim>
					<dim>1</dim>
				</port>
			</input>
			<output>
				<port id="2" precision="FP32">
					<dim>64</dim>
					<dim>1</dim>
					<dim>1</dim>
					<dim>7</dim>
					<dim>7</dim>
				</port>
			</output>
		</layer>
		<layer id="306" name="__module.model.6.m.0.0.attn.pe.conv/aten::_convolution/GroupConvolution" type="GroupConvolution" version="opset1">
			<data strides="1, 1" pads_begin="3, 3" pads_end="3, 3" dilations="1, 1" auto_pad="explicit" />
			<input>
				<port id="0" precision="FP32">
					<dim>1</dim>
					<dim>64</dim>
					<dim>20</dim>
					<dim>20</dim>
				</port>
				<port id="1" precision="FP32">
					<dim>64</dim>
					<dim>1</dim>
					<dim>1</dim>
					<dim>7</dim>
					<dim>7</dim>
				</port>
			</input>
			<output>
				<port id="2" precision="FP32">
					<dim>1</dim>
					<dim>64</dim>
					<dim>20</dim>
					<dim>20</dim>
				</port>
			</output>
		</layer>
		<layer id="307" name="__module.model.6.m.0.0.attn.pe.conv/aten::_convolution/Reshape_1" type="Const" version="opset1">
			<data element_type="f32" shape="1, 64, 1, 1" offset="269236" size="256" />
			<output>
				<port id="0" precision="FP32">
					<dim>1</dim>
					<dim>64</dim>
					<dim>1</dim>
					<dim>1</dim>
				</port>
			</output>
		</layer>
		<layer id="308" name="__module.model.6.m.0.0.attn.pe.conv/aten::_convolution/Add" type="Add" version="opset1">
			<data auto_broadcast="numpy" />
			<input>
				<port id="0" precision="FP32">
					<dim>1</dim>
					<dim>64</dim>
					<dim>20</dim>
					<dim>20</dim>
				</port>
				<port id="1" precision="FP32">
					<dim>1</dim>
					<dim>64</dim>
					<dim>1</dim>
					<dim>1</dim>
				</port>
			</input>
			<output>
				<port id="2" precision="FP32" names="354">
					<dim>1</dim>
					<dim>64</dim>
					<dim>20</dim>
					<dim>20</dim>
				</port>
			</output>
		</layer>
		<layer id="309" name="__module.model.6.m.0.0.attn.pe.conv/aten::_convolution/Add/fq_output_0/input_low" type="Const" version="opset1">
			<data element_type="f32" shape="" offset="269492" size="4" />
			<output>
				<port id="0" precision="FP32" />
			</output>
		</layer>
		<layer id="310" name="__module.model.6.m.0.0.attn.pe.conv/aten::_convolution/Add/fq_output_0/input_high" type="Const" version="opset1">
			<data element_type="f32" shape="" offset="269496" size="4" />
			<output>
				<port id="0" precision="FP32" />
			</output>
		</layer>
		<layer id="311" name="__module.model.6.m.0.0.attn.pe.conv/aten::_convolution/Add/fq_output_0/output_low" type="Const" version="opset1">
			<data element_type="f32" shape="" offset="269492" size="4" />
			<output>
				<port id="0" precision="FP32" />
			</output>
		</layer>
		<layer id="312" name="__module.model.6.m.0.0.attn.pe.conv/aten::_convolution/Add/fq_output_0/output_high" type="Const" version="opset1">
			<data element_type="f32" shape="" offset="269496" size="4" />
			<output>
				<port id="0" precision="FP32" />
			</output>
		</layer>
		<layer id="313" name="__module.model.6.m.0.0.attn.pe.conv/aten::_convolution/Add/fq_output_0" type="FakeQuantize" version="opset1">
			<data levels="256" auto_broadcast="numpy" />
			<input>
				<port id="0" precision="FP32">
					<dim>1</dim>
					<dim>64</dim>
					<dim>20</dim>
					<dim>20</dim>
				</port>
				<port id="1" precision="FP32" />
				<port id="2" precision="FP32" />
				<port id="3" precision="FP32" />
				<port id="4" precision="FP32" />
			</input>
			<output>
				<port id="5" precision="FP32">
					<dim>1</dim>
					<dim>64</dim>
					<dim>20</dim>
					<dim>20</dim>
				</port>
			</output>
		</layer>
		<layer id="314" name="__module.model.6.m.0.0.attn/aten::add/Add" type="Add" version="opset1">
			<data auto_broadcast="numpy" />
			<input>
				<port id="0" precision="FP32">
					<dim>1</dim>
					<dim>64</dim>
					<dim>20</dim>
					<dim>20</dim>
				</port>
				<port id="1" precision="FP32">
					<dim>1</dim>
					<dim>64</dim>
					<dim>20</dim>
					<dim>20</dim>
				</port>
			</input>
			<output>
				<port id="2" precision="FP32" names="355,input.53">
					<dim>1</dim>
					<dim>64</dim>
					<dim>20</dim>
					<dim>20</dim>
				</port>
			</output>
		</layer>
		<layer id="315" name="__module.model.6.m.0.0.attn/aten::add/Add/fq_output_0/input_low" type="Const" version="opset1">
			<data element_type="f32" shape="" offset="269500" size="4" />
			<output>
				<port id="0" precision="FP32" />
			</output>
		</layer>
		<layer id="316" name="__module.model.6.m.0.0.attn/aten::add/Add/fq_output_0/input_high" type="Const" version="opset1">
			<data element_type="f32" shape="" offset="269504" size="4" />
			<output>
				<port id="0" precision="FP32" />
			</output>
		</layer>
		<layer id="317" name="__module.model.6.m.0.0.attn/aten::add/Add/fq_output_0/output_low" type="Const" version="opset1">
			<data element_type="f32" shape="" offset="269500" size="4" />
			<output>
				<port id="0" precision="FP32" />
			</output>
		</layer>
		<layer id="318" name="__module.model.6.m.0.0.attn/aten::add/Add/fq_output_0/output_high" type="Const" version="opset1">
			<data element_type="f32" shape="" offset="269504" size="4" />
			<output>
				<port id="0" precision="FP32" />
			</output>
		</layer>
		<layer id="319" name="__module.model.6.m.0.0.attn/aten::add/Add/fq_output_0" type="FakeQuantize" version="opset1">
			<data levels="256" auto_broadcast="numpy" />
			<input>
				<port id="0" precision="FP32">
					<dim>1</dim>
					<dim>64</dim>
					<dim>20</dim>
					<dim>20</dim>
				</port>
				<port id="1" precision="FP32" />
				<port id="2" precision="FP32" />
				<port id="3" precision="FP32" />
				<port id="4" precision="FP32" />
			</input>
			<output>
				<port id="5" precision="FP32">
					<dim>1</dim>
					<dim>64</dim>
					<dim>20</dim>
					<dim>20</dim>
				</port>
			</output>
		</layer>
		<layer id="320" name="Constant_741845" type="Const" version="opset1">
			<data element_type="i8" shape="64, 64, 1, 1" offset="269508" size="4096" />
			<output>
				<port id="0" precision="I8">
					<dim>64</dim>
					<dim>64</dim>
					<dim>1</dim>
					<dim>1</dim>
				</port>
			</output>
		</layer>
		<layer id="321" name="Convert_741846" type="Convert" version="opset1">
			<data destination_type="f32" />
			<input>
				<port id="0" precision="I8">
					<dim>64</dim>
					<dim>64</dim>
					<dim>1</dim>
					<dim>1</dim>
				</port>
			</input>
			<output>
				<port id="1" precision="FP32">
					<dim>64</dim>
					<dim>64</dim>
					<dim>1</dim>
					<dim>1</dim>
				</port>
			</output>
		</layer>
		<layer id="322" name="Constant_741847" type="Const" version="opset1">
			<data element_type="f32" shape="64, 1, 1, 1" offset="273604" size="256" />
			<output>
				<port id="0" precision="FP32">
					<dim>64</dim>
					<dim>1</dim>
					<dim>1</dim>
					<dim>1</dim>
				</port>
			</output>
		</layer>
		<layer id="323" name="__module.model.6.m.0.0.attn.proj.conv/aten::_convolution/Convolution/fq_weights_1" type="Multiply" version="opset1">
			<data auto_broadcast="numpy" />
			<input>
				<port id="0" precision="FP32">
					<dim>64</dim>
					<dim>64</dim>
					<dim>1</dim>
					<dim>1</dim>
				</port>
				<port id="1" precision="FP32">
					<dim>64</dim>
					<dim>1</dim>
					<dim>1</dim>
					<dim>1</dim>
				</port>
			</input>
			<output>
				<port id="2" precision="FP32">
					<dim>64</dim>
					<dim>64</dim>
					<dim>1</dim>
					<dim>1</dim>
				</port>
			</output>
		</layer>
		<layer id="324" name="__module.model.6.m.0.0.attn.proj.conv/aten::_convolution/Convolution" type="Convolution" version="opset1">
			<data strides="1, 1" dilations="1, 1" pads_begin="0, 0" pads_end="0, 0" auto_pad="explicit" />
			<input>
				<port id="0" precision="FP32">
					<dim>1</dim>
					<dim>64</dim>
					<dim>20</dim>
					<dim>20</dim>
				</port>
				<port id="1" precision="FP32">
					<dim>64</dim>
					<dim>64</dim>
					<dim>1</dim>
					<dim>1</dim>
				</port>
			</input>
			<output>
				<port id="2" precision="FP32">
					<dim>1</dim>
					<dim>64</dim>
					<dim>20</dim>
					<dim>20</dim>
				</port>
			</output>
		</layer>
		<layer id="325" name="__module.model.6.m.0.0.attn.proj.conv/aten::_convolution/Reshape" type="Const" version="opset1">
			<data element_type="f32" shape="1, 64, 1, 1" offset="273860" size="256" />
			<output>
				<port id="0" precision="FP32">
					<dim>1</dim>
					<dim>64</dim>
					<dim>1</dim>
					<dim>1</dim>
				</port>
			</output>
		</layer>
		<layer id="326" name="__module.model.6.m.0.0.attn.proj.conv/aten::_convolution/Add" type="Add" version="opset1">
			<data auto_broadcast="numpy" />
			<input>
				<port id="0" precision="FP32">
					<dim>1</dim>
					<dim>64</dim>
					<dim>20</dim>
					<dim>20</dim>
				</port>
				<port id="1" precision="FP32">
					<dim>1</dim>
					<dim>64</dim>
					<dim>1</dim>
					<dim>1</dim>
				</port>
			</input>
			<output>
				<port id="2" precision="FP32" names="363">
					<dim>1</dim>
					<dim>64</dim>
					<dim>20</dim>
					<dim>20</dim>
				</port>
			</output>
		</layer>
		<layer id="327" name="__module.model.6.m.0.0.attn.proj.conv/aten::_convolution/Add/fq_output_0/input_low" type="Const" version="opset1">
			<data element_type="f32" shape="" offset="274116" size="4" />
			<output>
				<port id="0" precision="FP32" />
			</output>
		</layer>
		<layer id="328" name="__module.model.6.m.0.0.attn.proj.conv/aten::_convolution/Add/fq_output_0/input_high" type="Const" version="opset1">
			<data element_type="f32" shape="" offset="274120" size="4" />
			<output>
				<port id="0" precision="FP32" />
			</output>
		</layer>
		<layer id="329" name="__module.model.6.m.0.0.attn.proj.conv/aten::_convolution/Add/fq_output_0/output_low" type="Const" version="opset1">
			<data element_type="f32" shape="" offset="274116" size="4" />
			<output>
				<port id="0" precision="FP32" />
			</output>
		</layer>
		<layer id="330" name="__module.model.6.m.0.0.attn.proj.conv/aten::_convolution/Add/fq_output_0/output_high" type="Const" version="opset1">
			<data element_type="f32" shape="" offset="274120" size="4" />
			<output>
				<port id="0" precision="FP32" />
			</output>
		</layer>
		<layer id="331" name="__module.model.6.m.0.0.attn.proj.conv/aten::_convolution/Add/fq_output_0" type="FakeQuantize" version="opset1">
			<data levels="256" auto_broadcast="numpy" />
			<input>
				<port id="0" precision="FP32">
					<dim>1</dim>
					<dim>64</dim>
					<dim>20</dim>
					<dim>20</dim>
				</port>
				<port id="1" precision="FP32" />
				<port id="2" precision="FP32" />
				<port id="3" precision="FP32" />
				<port id="4" precision="FP32" />
			</input>
			<output>
				<port id="5" precision="FP32">
					<dim>1</dim>
					<dim>64</dim>
					<dim>20</dim>
					<dim>20</dim>
				</port>
			</output>
		</layer>
		<layer id="332" name="__module.model.6.m.0.0/aten::add/Add" type="Add" version="opset1">
			<data auto_broadcast="numpy" />
			<input>
				<port id="0" precision="FP32">
					<dim>1</dim>
					<dim>64</dim>
					<dim>20</dim>
					<dim>20</dim>
				</port>
				<port id="1" precision="FP32">
					<dim>1</dim>
					<dim>64</dim>
					<dim>20</dim>
					<dim>20</dim>
				</port>
			</input>
			<output>
				<port id="2" precision="FP32" names="364,input.55">
					<dim>1</dim>
					<dim>64</dim>
					<dim>20</dim>
					<dim>20</dim>
				</port>
			</output>
		</layer>
		<layer id="333" name="__module.model.6.m.0.0/aten::add/Add/fq_output_0/input_low" type="Const" version="opset1">
			<data element_type="f32" shape="" offset="274124" size="4" />
			<output>
				<port id="0" precision="FP32" />
			</output>
		</layer>
		<layer id="334" name="__module.model.6.m.0.0/aten::add/Add/fq_output_0/input_high" type="Const" version="opset1">
			<data element_type="f32" shape="" offset="274128" size="4" />
			<output>
				<port id="0" precision="FP32" />
			</output>
		</layer>
		<layer id="335" name="__module.model.6.m.0.0/aten::add/Add/fq_output_0/output_low" type="Const" version="opset1">
			<data element_type="f32" shape="" offset="274124" size="4" />
			<output>
				<port id="0" precision="FP32" />
			</output>
		</layer>
		<layer id="336" name="__module.model.6.m.0.0/aten::add/Add/fq_output_0/output_high" type="Const" version="opset1">
			<data element_type="f32" shape="" offset="274128" size="4" />
			<output>
				<port id="0" precision="FP32" />
			</output>
		</layer>
		<layer id="337" name="__module.model.6.m.0.0/aten::add/Add/fq_output_0" type="FakeQuantize" version="opset1">
			<data levels="256" auto_broadcast="numpy" />
			<input>
				<port id="0" precision="FP32">
					<dim>1</dim>
					<dim>64</dim>
					<dim>20</dim>
					<dim>20</dim>
				</port>
				<port id="1" precision="FP32" />
				<port id="2" precision="FP32" />
				<port id="3" precision="FP32" />
				<port id="4" precision="FP32" />
			</input>
			<output>
				<port id="5" precision="FP32">
					<dim>1</dim>
					<dim>64</dim>
					<dim>20</dim>
					<dim>20</dim>
				</port>
			</output>
		</layer>
		<layer id="338" name="Constant_741849" type="Const" version="opset1">
			<data element_type="i8" shape="128, 64, 1, 1" offset="274132" size="8192" />
			<output>
				<port id="0" precision="I8">
					<dim>128</dim>
					<dim>64</dim>
					<dim>1</dim>
					<dim>1</dim>
				</port>
			</output>
		</layer>
		<layer id="339" name="Convert_741850" type="Convert" version="opset1">
			<data destination_type="f32" />
			<input>
				<port id="0" precision="I8">
					<dim>128</dim>
					<dim>64</dim>
					<dim>1</dim>
					<dim>1</dim>
				</port>
			</input>
			<output>
				<port id="1" precision="FP32">
					<dim>128</dim>
					<dim>64</dim>
					<dim>1</dim>
					<dim>1</dim>
				</port>
			</output>
		</layer>
		<layer id="340" name="Constant_741851" type="Const" version="opset1">
			<data element_type="f32" shape="128, 1, 1, 1" offset="282324" size="512" />
			<output>
				<port id="0" precision="FP32">
					<dim>128</dim>
					<dim>1</dim>
					<dim>1</dim>
					<dim>1</dim>
				</port>
			</output>
		</layer>
		<layer id="341" name="__module.model.6.m.0.0.mlp.0.conv/aten::_convolution/Convolution/fq_weights_1" type="Multiply" version="opset1">
			<data auto_broadcast="numpy" />
			<input>
				<port id="0" precision="FP32">
					<dim>128</dim>
					<dim>64</dim>
					<dim>1</dim>
					<dim>1</dim>
				</port>
				<port id="1" precision="FP32">
					<dim>128</dim>
					<dim>1</dim>
					<dim>1</dim>
					<dim>1</dim>
				</port>
			</input>
			<output>
				<port id="2" precision="FP32">
					<dim>128</dim>
					<dim>64</dim>
					<dim>1</dim>
					<dim>1</dim>
				</port>
			</output>
		</layer>
		<layer id="342" name="__module.model.6.m.0.0.mlp.0.conv/aten::_convolution/Convolution" type="Convolution" version="opset1">
			<data strides="1, 1" dilations="1, 1" pads_begin="0, 0" pads_end="0, 0" auto_pad="explicit" />
			<input>
				<port id="0" precision="FP32">
					<dim>1</dim>
					<dim>64</dim>
					<dim>20</dim>
					<dim>20</dim>
				</port>
				<port id="1" precision="FP32">
					<dim>128</dim>
					<dim>64</dim>
					<dim>1</dim>
					<dim>1</dim>
				</port>
			</input>
			<output>
				<port id="2" precision="FP32">
					<dim>1</dim>
					<dim>128</dim>
					<dim>20</dim>
					<dim>20</dim>
				</port>
			</output>
		</layer>
		<layer id="343" name="__module.model.6.m.0.0.mlp.0.conv/aten::_convolution/Reshape" type="Const" version="opset1">
			<data element_type="f32" shape="1, 128, 1, 1" offset="282836" size="512" />
			<output>
				<port id="0" precision="FP32">
					<dim>1</dim>
					<dim>128</dim>
					<dim>1</dim>
					<dim>1</dim>
				</port>
			</output>
		</layer>
		<layer id="344" name="__module.model.6.m.0.0.mlp.0.conv/aten::_convolution/Add" type="Add" version="opset1">
			<data auto_broadcast="numpy" />
			<input>
				<port id="0" precision="FP32">
					<dim>1</dim>
					<dim>128</dim>
					<dim>20</dim>
					<dim>20</dim>
				</port>
				<port id="1" precision="FP32">
					<dim>1</dim>
					<dim>128</dim>
					<dim>1</dim>
					<dim>1</dim>
				</port>
			</input>
			<output>
				<port id="2" precision="FP32" names="374_1">
					<dim>1</dim>
					<dim>128</dim>
					<dim>20</dim>
					<dim>20</dim>
				</port>
			</output>
		</layer>
		<layer id="345" name="__module.model.21.cv3.2.1.1.act/aten::silu_/Swish_13" type="Swish" version="opset4">
			<input>
				<port id="0" precision="FP32">
					<dim>1</dim>
					<dim>128</dim>
					<dim>20</dim>
					<dim>20</dim>
				</port>
			</input>
			<output>
				<port id="1" precision="FP32" names="374,input.57">
					<dim>1</dim>
					<dim>128</dim>
					<dim>20</dim>
					<dim>20</dim>
				</port>
			</output>
		</layer>
		<layer id="346" name="__module.model.21.cv3.2.1.1.act/aten::silu_/Swish_13/fq_output_0/input_low" type="Const" version="opset1">
			<data element_type="f32" shape="" offset="283348" size="4" />
			<output>
				<port id="0" precision="FP32" />
			</output>
		</layer>
		<layer id="347" name="__module.model.21.cv3.2.1.1.act/aten::silu_/Swish_13/fq_output_0/input_high" type="Const" version="opset1">
			<data element_type="f32" shape="" offset="283352" size="4" />
			<output>
				<port id="0" precision="FP32" />
			</output>
		</layer>
		<layer id="348" name="__module.model.21.cv3.2.1.1.act/aten::silu_/Swish_13/fq_output_0/output_low" type="Const" version="opset1">
			<data element_type="f32" shape="" offset="283348" size="4" />
			<output>
				<port id="0" precision="FP32" />
			</output>
		</layer>
		<layer id="349" name="__module.model.21.cv3.2.1.1.act/aten::silu_/Swish_13/fq_output_0/output_high" type="Const" version="opset1">
			<data element_type="f32" shape="" offset="283352" size="4" />
			<output>
				<port id="0" precision="FP32" />
			</output>
		</layer>
		<layer id="350" name="__module.model.21.cv3.2.1.1.act/aten::silu_/Swish_13/fq_output_0" type="FakeQuantize" version="opset1">
			<data levels="256" auto_broadcast="numpy" />
			<input>
				<port id="0" precision="FP32">
					<dim>1</dim>
					<dim>128</dim>
					<dim>20</dim>
					<dim>20</dim>
				</port>
				<port id="1" precision="FP32" />
				<port id="2" precision="FP32" />
				<port id="3" precision="FP32" />
				<port id="4" precision="FP32" />
			</input>
			<output>
				<port id="5" precision="FP32">
					<dim>1</dim>
					<dim>128</dim>
					<dim>20</dim>
					<dim>20</dim>
				</port>
			</output>
		</layer>
		<layer id="351" name="Constant_741853" type="Const" version="opset1">
			<data element_type="i8" shape="64, 128, 1, 1" offset="283356" size="8192" />
			<output>
				<port id="0" precision="I8">
					<dim>64</dim>
					<dim>128</dim>
					<dim>1</dim>
					<dim>1</dim>
				</port>
			</output>
		</layer>
		<layer id="352" name="Convert_741854" type="Convert" version="opset1">
			<data destination_type="f32" />
			<input>
				<port id="0" precision="I8">
					<dim>64</dim>
					<dim>128</dim>
					<dim>1</dim>
					<dim>1</dim>
				</port>
			</input>
			<output>
				<port id="1" precision="FP32">
					<dim>64</dim>
					<dim>128</dim>
					<dim>1</dim>
					<dim>1</dim>
				</port>
			</output>
		</layer>
		<layer id="353" name="Constant_741855" type="Const" version="opset1">
			<data element_type="f32" shape="64, 1, 1, 1" offset="291548" size="256" />
			<output>
				<port id="0" precision="FP32">
					<dim>64</dim>
					<dim>1</dim>
					<dim>1</dim>
					<dim>1</dim>
				</port>
			</output>
		</layer>
		<layer id="354" name="__module.model.6.m.0.0.mlp.1.conv/aten::_convolution/Convolution/fq_weights_1" type="Multiply" version="opset1">
			<data auto_broadcast="numpy" />
			<input>
				<port id="0" precision="FP32">
					<dim>64</dim>
					<dim>128</dim>
					<dim>1</dim>
					<dim>1</dim>
				</port>
				<port id="1" precision="FP32">
					<dim>64</dim>
					<dim>1</dim>
					<dim>1</dim>
					<dim>1</dim>
				</port>
			</input>
			<output>
				<port id="2" precision="FP32">
					<dim>64</dim>
					<dim>128</dim>
					<dim>1</dim>
					<dim>1</dim>
				</port>
			</output>
		</layer>
		<layer id="355" name="__module.model.6.m.0.0.mlp.1.conv/aten::_convolution/Convolution" type="Convolution" version="opset1">
			<data strides="1, 1" dilations="1, 1" pads_begin="0, 0" pads_end="0, 0" auto_pad="explicit" />
			<input>
				<port id="0" precision="FP32">
					<dim>1</dim>
					<dim>128</dim>
					<dim>20</dim>
					<dim>20</dim>
				</port>
				<port id="1" precision="FP32">
					<dim>64</dim>
					<dim>128</dim>
					<dim>1</dim>
					<dim>1</dim>
				</port>
			</input>
			<output>
				<port id="2" precision="FP32">
					<dim>1</dim>
					<dim>64</dim>
					<dim>20</dim>
					<dim>20</dim>
				</port>
			</output>
		</layer>
		<layer id="356" name="__module.model.6.m.0.0.mlp.1.conv/aten::_convolution/Reshape" type="Const" version="opset1">
			<data element_type="f32" shape="1, 64, 1, 1" offset="291804" size="256" />
			<output>
				<port id="0" precision="FP32">
					<dim>1</dim>
					<dim>64</dim>
					<dim>1</dim>
					<dim>1</dim>
				</port>
			</output>
		</layer>
		<layer id="357" name="__module.model.6.m.0.0.mlp.1.conv/aten::_convolution/Add" type="Add" version="opset1">
			<data auto_broadcast="numpy" />
			<input>
				<port id="0" precision="FP32">
					<dim>1</dim>
					<dim>64</dim>
					<dim>20</dim>
					<dim>20</dim>
				</port>
				<port id="1" precision="FP32">
					<dim>1</dim>
					<dim>64</dim>
					<dim>1</dim>
					<dim>1</dim>
				</port>
			</input>
			<output>
				<port id="2" precision="FP32" names="384">
					<dim>1</dim>
					<dim>64</dim>
					<dim>20</dim>
					<dim>20</dim>
				</port>
			</output>
		</layer>
		<layer id="358" name="__module.model.6.m.0.0.mlp.1.conv/aten::_convolution/Add/fq_output_0/input_low" type="Const" version="opset1">
			<data element_type="f32" shape="" offset="292060" size="4" />
			<output>
				<port id="0" precision="FP32" />
			</output>
		</layer>
		<layer id="359" name="__module.model.6.m.0.0.mlp.1.conv/aten::_convolution/Add/fq_output_0/input_high" type="Const" version="opset1">
			<data element_type="f32" shape="" offset="292064" size="4" />
			<output>
				<port id="0" precision="FP32" />
			</output>
		</layer>
		<layer id="360" name="__module.model.6.m.0.0.mlp.1.conv/aten::_convolution/Add/fq_output_0/output_low" type="Const" version="opset1">
			<data element_type="f32" shape="" offset="292060" size="4" />
			<output>
				<port id="0" precision="FP32" />
			</output>
		</layer>
		<layer id="361" name="__module.model.6.m.0.0.mlp.1.conv/aten::_convolution/Add/fq_output_0/output_high" type="Const" version="opset1">
			<data element_type="f32" shape="" offset="292064" size="4" />
			<output>
				<port id="0" precision="FP32" />
			</output>
		</layer>
		<layer id="362" name="__module.model.6.m.0.0.mlp.1.conv/aten::_convolution/Add/fq_output_0" type="FakeQuantize" version="opset1">
			<data levels="256" auto_broadcast="numpy" />
			<input>
				<port id="0" precision="FP32">
					<dim>1</dim>
					<dim>64</dim>
					<dim>20</dim>
					<dim>20</dim>
				</port>
				<port id="1" precision="FP32" />
				<port id="2" precision="FP32" />
				<port id="3" precision="FP32" />
				<port id="4" precision="FP32" />
			</input>
			<output>
				<port id="5" precision="FP32">
					<dim>1</dim>
					<dim>64</dim>
					<dim>20</dim>
					<dim>20</dim>
				</port>
			</output>
		</layer>
		<layer id="363" name="__module.model.6.m.0.0/aten::add/Add_1" type="Add" version="opset1">
			<data auto_broadcast="numpy" />
			<input>
				<port id="0" precision="FP32">
					<dim>1</dim>
					<dim>64</dim>
					<dim>20</dim>
					<dim>20</dim>
				</port>
				<port id="1" precision="FP32">
					<dim>1</dim>
					<dim>64</dim>
					<dim>20</dim>
					<dim>20</dim>
				</port>
			</input>
			<output>
				<port id="2" precision="FP32" names="385,x.13">
					<dim>1</dim>
					<dim>64</dim>
					<dim>20</dim>
					<dim>20</dim>
				</port>
			</output>
		</layer>
		<layer id="364" name="__module.model.6.m.0.0/aten::add/Add_1/fq_output_0/input_low" type="Const" version="opset1">
			<data element_type="f32" shape="" offset="292068" size="4" />
			<output>
				<port id="0" precision="FP32" />
			</output>
		</layer>
		<layer id="365" name="__module.model.6.m.0.0/aten::add/Add_1/fq_output_0/input_high" type="Const" version="opset1">
			<data element_type="f32" shape="" offset="292072" size="4" />
			<output>
				<port id="0" precision="FP32" />
			</output>
		</layer>
		<layer id="366" name="__module.model.6.m.0.0/aten::add/Add_1/fq_output_0/output_low" type="Const" version="opset1">
			<data element_type="f32" shape="" offset="292068" size="4" />
			<output>
				<port id="0" precision="FP32" />
			</output>
		</layer>
		<layer id="367" name="__module.model.6.m.0.0/aten::add/Add_1/fq_output_0/output_high" type="Const" version="opset1">
			<data element_type="f32" shape="" offset="292072" size="4" />
			<output>
				<port id="0" precision="FP32" />
			</output>
		</layer>
		<layer id="368" name="__module.model.6.m.0.0/aten::add/Add_1/fq_output_0" type="FakeQuantize" version="opset1">
			<data levels="256" auto_broadcast="numpy" />
			<input>
				<port id="0" precision="FP32">
					<dim>1</dim>
					<dim>64</dim>
					<dim>20</dim>
					<dim>20</dim>
				</port>
				<port id="1" precision="FP32" />
				<port id="2" precision="FP32" />
				<port id="3" precision="FP32" />
				<port id="4" precision="FP32" />
			</input>
			<output>
				<port id="5" precision="FP32">
					<dim>1</dim>
					<dim>64</dim>
					<dim>20</dim>
					<dim>20</dim>
				</port>
			</output>
		</layer>
		<layer id="369" name="Constant_741857" type="Const" version="opset1">
			<data element_type="i8" shape="192, 64, 1, 1" offset="292076" size="12288" />
			<output>
				<port id="0" precision="I8">
					<dim>192</dim>
					<dim>64</dim>
					<dim>1</dim>
					<dim>1</dim>
				</port>
			</output>
		</layer>
		<layer id="370" name="Convert_741858" type="Convert" version="opset1">
			<data destination_type="f32" />
			<input>
				<port id="0" precision="I8">
					<dim>192</dim>
					<dim>64</dim>
					<dim>1</dim>
					<dim>1</dim>
				</port>
			</input>
			<output>
				<port id="1" precision="FP32">
					<dim>192</dim>
					<dim>64</dim>
					<dim>1</dim>
					<dim>1</dim>
				</port>
			</output>
		</layer>
		<layer id="371" name="Constant_741859" type="Const" version="opset1">
			<data element_type="f32" shape="192, 1, 1, 1" offset="304364" size="768" />
			<output>
				<port id="0" precision="FP32">
					<dim>192</dim>
					<dim>1</dim>
					<dim>1</dim>
					<dim>1</dim>
				</port>
			</output>
		</layer>
		<layer id="372" name="__module.model.6.m.0.1.attn.qkv.conv/aten::_convolution/Convolution/fq_weights_1" type="Multiply" version="opset1">
			<data auto_broadcast="numpy" />
			<input>
				<port id="0" precision="FP32">
					<dim>192</dim>
					<dim>64</dim>
					<dim>1</dim>
					<dim>1</dim>
				</port>
				<port id="1" precision="FP32">
					<dim>192</dim>
					<dim>1</dim>
					<dim>1</dim>
					<dim>1</dim>
				</port>
			</input>
			<output>
				<port id="2" precision="FP32">
					<dim>192</dim>
					<dim>64</dim>
					<dim>1</dim>
					<dim>1</dim>
				</port>
			</output>
		</layer>
		<layer id="373" name="__module.model.6.m.0.1.attn.qkv.conv/aten::_convolution/Convolution" type="Convolution" version="opset1">
			<data strides="1, 1" dilations="1, 1" pads_begin="0, 0" pads_end="0, 0" auto_pad="explicit" />
			<input>
				<port id="0" precision="FP32">
					<dim>1</dim>
					<dim>64</dim>
					<dim>20</dim>
					<dim>20</dim>
				</port>
				<port id="1" precision="FP32">
					<dim>192</dim>
					<dim>64</dim>
					<dim>1</dim>
					<dim>1</dim>
				</port>
			</input>
			<output>
				<port id="2" precision="FP32">
					<dim>1</dim>
					<dim>192</dim>
					<dim>20</dim>
					<dim>20</dim>
				</port>
			</output>
		</layer>
		<layer id="374" name="__module.model.6.m.0.1.attn.qkv.conv/aten::_convolution/Reshape" type="Const" version="opset1">
			<data element_type="f32" shape="1, 192, 1, 1" offset="305132" size="768" />
			<output>
				<port id="0" precision="FP32">
					<dim>1</dim>
					<dim>192</dim>
					<dim>1</dim>
					<dim>1</dim>
				</port>
			</output>
		</layer>
		<layer id="375" name="__module.model.6.m.0.1.attn.qkv.conv/aten::_convolution/Add" type="Add" version="opset1">
			<data auto_broadcast="numpy" />
			<input>
				<port id="0" precision="FP32">
					<dim>1</dim>
					<dim>192</dim>
					<dim>20</dim>
					<dim>20</dim>
				</port>
				<port id="1" precision="FP32">
					<dim>1</dim>
					<dim>192</dim>
					<dim>1</dim>
					<dim>1</dim>
				</port>
			</input>
			<output>
				<port id="2" precision="FP32" names="407">
					<dim>1</dim>
					<dim>192</dim>
					<dim>20</dim>
					<dim>20</dim>
				</port>
			</output>
		</layer>
		<layer id="376" name="__module.model.6.m.0.1.attn.qkv.conv/aten::_convolution/Add/fq_output_0/input_low" type="Const" version="opset1">
			<data element_type="f32" shape="" offset="305900" size="4" />
			<output>
				<port id="0" precision="FP32" />
			</output>
		</layer>
		<layer id="377" name="__module.model.6.m.0.1.attn.qkv.conv/aten::_convolution/Add/fq_output_0/input_high" type="Const" version="opset1">
			<data element_type="f32" shape="" offset="305904" size="4" />
			<output>
				<port id="0" precision="FP32" />
			</output>
		</layer>
		<layer id="378" name="__module.model.6.m.0.1.attn.qkv.conv/aten::_convolution/Add/fq_output_0/output_low" type="Const" version="opset1">
			<data element_type="f32" shape="" offset="305900" size="4" />
			<output>
				<port id="0" precision="FP32" />
			</output>
		</layer>
		<layer id="379" name="__module.model.6.m.0.1.attn.qkv.conv/aten::_convolution/Add/fq_output_0/output_high" type="Const" version="opset1">
			<data element_type="f32" shape="" offset="305904" size="4" />
			<output>
				<port id="0" precision="FP32" />
			</output>
		</layer>
		<layer id="380" name="__module.model.6.m.0.1.attn.qkv.conv/aten::_convolution/Add/fq_output_0" type="FakeQuantize" version="opset1">
			<data levels="256" auto_broadcast="numpy" />
			<input>
				<port id="0" precision="FP32">
					<dim>1</dim>
					<dim>192</dim>
					<dim>20</dim>
					<dim>20</dim>
				</port>
				<port id="1" precision="FP32" />
				<port id="2" precision="FP32" />
				<port id="3" precision="FP32" />
				<port id="4" precision="FP32" />
			</input>
			<output>
				<port id="5" precision="FP32">
					<dim>1</dim>
					<dim>192</dim>
					<dim>20</dim>
					<dim>20</dim>
				</port>
			</output>
		</layer>
		<layer id="381" name="Constant_32887" type="Const" version="opset1">
			<data element_type="i64" shape="3" offset="265624" size="24" />
			<output>
				<port id="0" precision="I64">
					<dim>3</dim>
				</port>
			</output>
		</layer>
		<layer id="382" name="__module.model.6.m.0.1.attn/aten::flatten/Reshape" type="Reshape" version="opset1">
			<data special_zero="true" />
			<input>
				<port id="0" precision="FP32">
					<dim>1</dim>
					<dim>192</dim>
					<dim>20</dim>
					<dim>20</dim>
				</port>
				<port id="1" precision="I64">
					<dim>3</dim>
				</port>
			</input>
			<output>
				<port id="2" precision="FP32" names="408">
					<dim>1</dim>
					<dim>192</dim>
					<dim>400</dim>
				</port>
			</output>
		</layer>
		<layer id="383" name="__module.model.6.m.0.1.attn/aten::transpose/ScatterElementsUpdate" type="Const" version="opset1">
			<data element_type="i32" shape="3" offset="265648" size="12" />
			<output>
				<port id="0" precision="I32">
					<dim>3</dim>
				</port>
			</output>
		</layer>
		<layer id="384" name="__module.model.6.m.0.1.attn/aten::transpose/Transpose" type="Transpose" version="opset1">
			<input>
				<port id="0" precision="FP32">
					<dim>1</dim>
					<dim>192</dim>
					<dim>400</dim>
				</port>
				<port id="1" precision="I32">
					<dim>3</dim>
				</port>
			</input>
			<output>
				<port id="2" precision="FP32" names="409,qkv.5">
					<dim>1</dim>
					<dim>400</dim>
					<dim>192</dim>
				</port>
			</output>
		</layer>
		<layer id="385" name="ShapeOf_32688" type="ShapeOf" version="opset3">
			<data output_type="i64" />
			<input>
				<port id="0" precision="FP32">
					<dim>1</dim>
					<dim>192</dim>
					<dim>20</dim>
					<dim>20</dim>
				</port>
			</input>
			<output>
				<port id="1" precision="I64">
					<dim>4</dim>
				</port>
			</output>
		</layer>
		<layer id="386" name="Constant_33008" type="Const" version="opset1">
			<data element_type="i64" shape="1" offset="265660" size="8" />
			<output>
				<port id="0" precision="I64">
					<dim>1</dim>
				</port>
			</output>
		</layer>
…
		<edge from-layer="1634" from-port="0" to-layer="1638" to-port="1" />
		<edge from-layer="1635" from-port="0" to-layer="1638" to-port="2" />
		<edge from-layer="1636" from-port="0" to-layer="1638" to-port="3" />
		<edge from-layer="1637" from-port="0" to-layer="1638" to-port="4" />
		<edge from-layer="1638" from-port="5" to-layer="1639" to-port="1" />
		<edge from-layer="1639" from-port="2" to-layer="1644" to-port="0" />
		<edge from-layer="1640" from-port="0" to-layer="1644" to-port="1" />
		<edge from-layer="1641" from-port="0" to-layer="1644" to-port="2" />
		<edge from-layer="1642" from-port="0" to-layer="1644" to-port="3" />
		<edge from-layer="1643" from-port="0" to-layer="1644" to-port="4" />
		<edge from-layer="1644" from-port="5" to-layer="1658" to-port="0" />
		<edge from-layer="1645" from-port="0" to-layer="1646" to-port="0" />
		<edge from-layer="1646" from-port="1" to-layer="1648" to-port="0" />
		<edge from-layer="1647" from-port="0" to-layer="1648" to-port="1" />
		<edge from-layer="1648" from-port="2" to-layer="1649" to-port="1" />
		<edge from-layer="1649" from-port="2" to-layer="1651" to-port="0" />
		<edge from-layer="1650" from-port="0" to-layer="1651" to-port="1" />
		<edge from-layer="1651" from-port="2" to-layer="1652" to-port="0" />
		<edge from-layer="1652" from-port="1" to-layer="1657" to-port="0" />
		<edge from-layer="1653" from-port="0" to-layer="1657" to-port="1" />
		<edge from-layer="1654" from-port="0" to-layer="1657" to-port="2" />
		<edge from-layer="1655" from-port="0" to-layer="1657" to-port="3" />
		<edge from-layer="1656" from-port="0" to-layer="1657" to-port="4" />
		<edge from-layer="1657" from-port="5" to-layer="1658" to-port="1" />
		<edge from-layer="1658" from-port="2" to-layer="1663" to-port="0" />
		<edge from-layer="1659" from-port="0" to-layer="1660" to-port="0" />
		<edge from-layer="1660" from-port="1" to-layer="1662" to-port="0" />
		<edge from-layer="1661" from-port="0" to-layer="1662" to-port="1" />
		<edge from-layer="1662" from-port="2" to-layer="1663" to-port="1" />
		<edge from-layer="1663" from-port="2" to-layer="1665" to-port="0" />
		<edge from-layer="1664" from-port="0" to-layer="1665" to-port="1" />
		<edge from-layer="1665" from-port="2" to-layer="1666" to-port="0" />
		<edge from-layer="1666" from-port="1" to-layer="1671" to-port="0" />
		<edge from-layer="1667" from-port="0" to-layer="1671" to-port="1" />
		<edge from-layer="1668" from-port="0" to-layer="1671" to-port="2" />
		<edge from-layer="1669" from-port="0" to-layer="1671" to-port="3" />
		<edge from-layer="1670" from-port="0" to-layer="1671" to-port="4" />
		<edge from-layer="1671" from-port="5" to-layer="1672" to-port="1" />
		<edge from-layer="1672" from-port="2" to-layer="1677" to-port="0" />
		<edge from-layer="1673" from-port="0" to-layer="1674" to-port="0" />
		<edge from-layer="1674" from-port="1" to-layer="1676" to-port="0" />
		<edge from-layer="1675" from-port="0" to-layer="1676" to-port="1" />
		<edge from-layer="1676" from-port="2" to-layer="1677" to-port="1" />
		<edge from-layer="1677" from-port="2" to-layer="1679" to-port="0" />
		<edge from-layer="1678" from-port="0" to-layer="1679" to-port="1" />
		<edge from-layer="1679" from-port="2" to-layer="1680" to-port="0" />
		<edge from-layer="1680" from-port="1" to-layer="1685" to-port="0" />
		<edge from-layer="1681" from-port="0" to-layer="1685" to-port="1" />
		<edge from-layer="1682" from-port="0" to-layer="1685" to-port="2" />
		<edge from-layer="1683" from-port="0" to-layer="1685" to-port="3" />
		<edge from-layer="1684" from-port="0" to-layer="1685" to-port="4" />
		<edge from-layer="1685" from-port="5" to-layer="1723" to-port="0" />
		<edge from-layer="1685" from-port="5" to-layer="1785" to-port="0" />
		<edge from-layer="1685" from-port="5" to-layer="1690" to-port="0" />
		<edge from-layer="1686" from-port="0" to-layer="1687" to-port="0" />
		<edge from-layer="1687" from-port="1" to-layer="1689" to-port="0" />
		<edge from-layer="1688" from-port="0" to-layer="1689" to-port="1" />
		<edge from-layer="1689" from-port="2" to-layer="1690" to-port="1" />
		<edge from-layer="1690" from-port="2" to-layer="1692" to-port="0" />
		<edge from-layer="1691" from-port="0" to-layer="1692" to-port="1" />
		<edge from-layer="1692" from-port="2" to-layer="1693" to-port="0" />
		<edge from-layer="1693" from-port="1" to-layer="1698" to-port="0" />
		<edge from-layer="1694" from-port="0" to-layer="1698" to-port="1" />
		<edge from-layer="1695" from-port="0" to-layer="1698" to-port="2" />
		<edge from-layer="1696" from-port="0" to-layer="1698" to-port="3" />
		<edge from-layer="1697" from-port="0" to-layer="1698" to-port="4" />
		<edge from-layer="1698" from-port="5" to-layer="1703" to-port="0" />
		<edge from-layer="1699" from-port="0" to-layer="1700" to-port="0" />
		<edge from-layer="1700" from-port="1" to-layer="1702" to-port="0" />
		<edge from-layer="1701" from-port="0" to-layer="1702" to-port="1" />
		<edge from-layer="1702" from-port="2" to-layer="1703" to-port="1" />
		<edge from-layer="1703" from-port="2" to-layer="1705" to-port="0" />
		<edge from-layer="1704" from-port="0" to-layer="1705" to-port="1" />
		<edge from-layer="1705" from-port="2" to-layer="1706" to-port="0" />
		<edge from-layer="1706" from-port="1" to-layer="1711" to-port="0" />
		<edge from-layer="1707" from-port="0" to-layer="1711" to-port="1" />
		<edge from-layer="1708" from-port="0" to-layer="1711" to-port="2" />
		<edge from-layer="1709" from-port="0" to-layer="1711" to-port="3" />
		<edge from-layer="1710" from-port="0" to-layer="1711" to-port="4" />
		<edge from-layer="1711" from-port="5" to-layer="1716" to-port="0" />
		<edge from-layer="1712" from-port="0" to-layer="1713" to-port="0" />
		<edge from-layer="1713" from-port="1" to-layer="1715" to-port="0" />
		<edge from-layer="1714" from-port="0" to-layer="1715" to-port="1" />
		<edge from-layer="1715" from-port="2" to-layer="1716" to-port="1" />
		<edge from-layer="1716" from-port="2" to-layer="1718" to-port="0" />
		<edge from-layer="1717" from-port="0" to-layer="1718" to-port="1" />
		<edge from-layer="1718" from-port="2" to-layer="1778" to-port="0" />
		<edge from-layer="1719" from-port="0" to-layer="1720" to-port="0" />
		<edge from-layer="1720" from-port="1" to-layer="1722" to-port="0" />
		<edge from-layer="1721" from-port="0" to-layer="1722" to-port="1" />
		<edge from-layer="1722" from-port="2" to-layer="1723" to-port="1" />
		<edge from-layer="1723" from-port="2" to-layer="1725" to-port="0" />
		<edge from-layer="1724" from-port="0" to-layer="1725" to-port="1" />
		<edge from-layer="1725" from-port="2" to-layer="1726" to-port="0" />
		<edge from-layer="1726" from-port="1" to-layer="1731" to-port="0" />
		<edge from-layer="1727" from-port="0" to-layer="1731" to-port="1" />
		<edge from-layer="1728" from-port="0" to-layer="1731" to-port="2" />
		<edge from-layer="1729" from-port="0" to-layer="1731" to-port="3" />
		<edge from-layer="1730" from-port="0" to-layer="1731" to-port="4" />
		<edge from-layer="1731" from-port="5" to-layer="1736" to-port="0" />
		<edge from-layer="1732" from-port="0" to-layer="1733" to-port="0" />
		<edge from-layer="1733" from-port="1" to-layer="1735" to-port="0" />
		<edge from-layer="1734" from-port="0" to-layer="1735" to-port="1" />
		<edge from-layer="1735" from-port="2" to-layer="1736" to-port="1" />
		<edge from-layer="1736" from-port="2" to-layer="1738" to-port="0" />
		<edge from-layer="1737" from-port="0" to-layer="1738" to-port="1" />
		<edge from-layer="1738" from-port="2" to-layer="1739" to-port="0" />
		<edge from-layer="1739" from-port="1" to-layer="1744" to-port="0" />
		<edge from-layer="1740" from-port="0" to-layer="1744" to-port="1" />
		<edge from-layer="1741" from-port="0" to-layer="1744" to-port="2" />
		<edge from-layer="1742" from-port="0" to-layer="1744" to-port="3" />
		<edge from-layer="1743" from-port="0" to-layer="1744" to-port="4" />
		<edge from-layer="1744" from-port="5" to-layer="1749" to-port="0" />
		<edge from-layer="1745" from-port="0" to-layer="1746" to-port="0" />
		<edge from-layer="1746" from-port="1" to-layer="1748" to-port="0" />
		<edge from-layer="1747" from-port="0" to-layer="1748" to-port="1" />
		<edge from-layer="1748" from-port="2" to-layer="1749" to-port="1" />
		<edge from-layer="1749" from-port="2" to-layer="1751" to-port="0" />
		<edge from-layer="1750" from-port="0" to-layer="1751" to-port="1" />
		<edge from-layer="1751" from-port="2" to-layer="1752" to-port="0" />
		<edge from-layer="1752" from-port="1" to-layer="1757" to-port="0" />
		<edge from-layer="1753" from-port="0" to-layer="1757" to-port="1" />
		<edge from-layer="1754" from-port="0" to-layer="1757" to-port="2" />
		<edge from-layer="1755" from-port="0" to-layer="1757" to-port="3" />
		<edge from-layer="1756" from-port="0" to-layer="1757" to-port="4" />
		<edge from-layer="1757" from-port="5" to-layer="1762" to-port="0" />
		<edge from-layer="1758" from-port="0" to-layer="1759" to-port="0" />
		<edge from-layer="1759" from-port="1" to-layer="1761" to-port="0" />
		<edge from-layer="1760" from-port="0" to-layer="1761" to-port="1" />
		<edge from-layer="1761" from-port="2" to-layer="1762" to-port="1" />
		<edge from-layer="1762" from-port="2" to-layer="1764" to-port="0" />
		<edge from-layer="1763" from-port="0" to-layer="1764" to-port="1" />
		<edge from-layer="1764" from-port="2" to-layer="1765" to-port="0" />
		<edge from-layer="1765" from-port="1" to-layer="1770" to-port="0" />
		<edge from-layer="1766" from-port="0" to-layer="1770" to-port="1" />
		<edge from-layer="1767" from-port="0" to-layer="1770" to-port="2" />
		<edge from-layer="1768" from-port="0" to-layer="1770" to-port="3" />
		<edge from-layer="1769" from-port="0" to-layer="1770" to-port="4" />
		<edge from-layer="1770" from-port="5" to-layer="1775" to-port="0" />
		<edge from-layer="1771" from-port="0" to-layer="1772" to-port="0" />
		<edge from-layer="1772" from-port="1" to-layer="1774" to-port="0" />
		<edge from-layer="1773" from-port="0" to-layer="1774" to-port="1" />
		<edge from-layer="1774" from-port="2" to-layer="1775" to-port="1" />
		<edge from-layer="1775" from-port="2" to-layer="1777" to-port="0" />
		<edge from-layer="1776" from-port="0" to-layer="1777" to-port="1" />
		<edge from-layer="1777" from-port="2" to-layer="1778" to-port="1" />
		<edge from-layer="1778" from-port="2" to-layer="1780" to-port="0" />
		<edge from-layer="1779" from-port="0" to-layer="1780" to-port="1" />
		<edge from-layer="1780" from-port="2" to-layer="2264" to-port="0" />
		<edge from-layer="1781" from-port="0" to-layer="1782" to-port="0" />
		<edge from-layer="1782" from-port="1" to-layer="1784" to-port="0" />
		<edge from-layer="1783" from-port="0" to-layer="1784" to-port="1" />
		<edge from-layer="1784" from-port="2" to-layer="1785" to-port="1" />
		<edge from-layer="1785" from-port="2" to-layer="1787" to-port="0" />
		<edge from-layer="1786" from-port="0" to-layer="1787" to-port="1" />
		<edge from-layer="1787" from-port="2" to-layer="1788" to-port="0" />
		<edge from-layer="1788" from-port="1" to-layer="1793" to-port="0" />
		<edge from-layer="1789" from-port="0" to-layer="1793" to-port="1" />
		<edge from-layer="1790" from-port="0" to-layer="1793" to-port="2" />
		<edge from-layer="1791" from-port="0" to-layer="1793" to-port="3" />
		<edge from-layer="1792" from-port="0" to-layer="1793" to-port="4" />
		<edge from-layer="1793" from-port="5" to-layer="1794" to-port="0" />
		<edge from-layer="1794" from-port="2" to-layer="1799" to-port="0" />
		<edge from-layer="1795" from-port="0" to-layer="1796" to-port="0" />
		<edge from-layer="1796" from-port="1" to-layer="1798" to-port="0" />
		<edge from-layer="1797" from-port="0" to-layer="1798" to-port="1" />
		<edge from-layer="1798" from-port="2" to-layer="1799" to-port="1" />
		<edge from-layer="1799" from-port="2" to-layer="1801" to-port="0" />
		<edge from-layer="1800" from-port="0" to-layer="1801" to-port="1" />
		<edge from-layer="1801" from-port="2" to-layer="1802" to-port="0" />
		<edge from-layer="1802" from-port="1" to-layer="1807" to-port="0" />
		<edge from-layer="1803" from-port="0" to-layer="1807" to-port="1" />
		<edge from-layer="1804" from-port="0" to-layer="1807" to-port="2" />
		<edge from-layer="1805" from-port="0" to-layer="1807" to-port="3" />
		<edge from-layer="1806" from-port="0" to-layer="1807" to-port="4" />
		<edge from-layer="1807" from-port="5" to-layer="1812" to-port="0" />
		<edge from-layer="1807" from-port="5" to-layer="1889" to-port="0" />
		<edge from-layer="1807" from-port="5" to-layer="1912" to-port="0" />
		<edge from-layer="1808" from-port="0" to-layer="1809" to-port="0" />
		<edge from-layer="1809" from-port="1" to-layer="1811" to-port="0" />
		<edge from-layer="1810" from-port="0" to-layer="1811" to-port="1" />
		<edge from-layer="1811" from-port="2" to-layer="1812" to-port="1" />
		<edge from-layer="1812" from-port="2" to-layer="1814" to-port="0" />
		<edge from-layer="1813" from-port="0" to-layer="1814" to-port="1" />
		<edge from-layer="1814" from-port="2" to-layer="1815" to-port="0" />
		<edge from-layer="1815" from-port="1" to-layer="1820" to-port="0" />
		<edge from-layer="1816" from-port="0" to-layer="1820" to-port="1" />
		<edge from-layer="1817" from-port="0" to-layer="1820" to-port="2" />
		<edge from-layer="1818" from-port="0" to-layer="1820" to-port="3" />
		<edge from-layer="1819" from-port="0" to-layer="1820" to-port="4" />
		<edge from-layer="1820" from-port="5" to-layer="1825" to-port="0" />
		<edge from-layer="1820" from-port="5" to-layer="1847" to-port="0" />
		<edge from-layer="1821" from-port="0" to-layer="1822" to-port="0" />
		<edge from-layer="1822" from-port="1" to-layer="1824" to-port="0" />
		<edge from-layer="1823" from-port="0" to-layer="1824" to-port="1" />
		<edge from-layer="1824" from-port="2" to-layer="1825" to-port="1" />
		<edge from-layer="1825" from-port="2" to-layer="1827" to-port="0" />
		<edge from-layer="1826" from-port="0" to-layer="1827" to-port="1" />
		<edge from-layer="1827" from-port="2" to-layer="1828" to-port="0" />
		<edge from-layer="1828" from-port="1" to-layer="1833" to-port="0" />
		<edge from-layer="1829" from-port="0" to-layer="1833" to-port="1" />
		<edge from-layer="1830" from-port="0" to-layer="1833" to-port="2" />
		<edge from-layer="1831" from-port="0" to-layer="1833" to-port="3" />
		<edge from-layer="1832" from-port="0" to-layer="1833" to-port="4" />
		<edge from-layer="1833" from-port="5" to-layer="1838" to-port="0" />
		<edge from-layer="1834" from-port="0" to-layer="1835" to-port="0" />
		<edge from-layer="1835" from-port="1" to-layer="1837" to-port="0" />
		<edge from-layer="1836" from-port="0" to-layer="1837" to-port="1" />
		<edge from-layer="1837" from-port="2" to-layer="1838" to-port="1" />
		<edge from-layer="1838" from-port="2" to-layer="1840" to-port="0" />
		<edge from-layer="1839" from-port="0" to-layer="1840" to-port="1" />
		<edge from-layer="1840" from-port="2" to-layer="1841" to-port="0" />
		<edge from-layer="1841" from-port="1" to-layer="1846" to-port="0" />
		<edge from-layer="1842" from-port="0" to-layer="1846" to-port="1" />
		<edge from-layer="1843" from-port="0" to-layer="1846" to-port="2" />
		<edge from-layer="1844" from-port="0" to-layer="1846" to-port="3" />
		<edge from-layer="1845" from-port="0" to-layer="1846" to-port="4" />
		<edge from-layer="1846" from-port="5" to-layer="1847" to-port="1" />
		<edge from-layer="1847" from-port="2" to-layer="1852" to-port="0" />
		<edge from-layer="1848" from-port="0" to-layer="1852" to-port="1" />
		<edge from-layer="1849" from-port="0" to-layer="1852" to-port="2" />
		<edge from-layer="1850" from-port="0" to-layer="1852" to-port="3" />
		<edge from-layer="1851" from-port="0" to-layer="1852" to-port="4" />
		<edge from-layer="1852" from-port="5" to-layer="1857" to-port="0" />
		<edge from-layer="1852" from-port="5" to-layer="1879" to-port="0" />
		<edge from-layer="1853" from-port="0" to-layer="1854" to-port="0" />
		<edge from-layer="1854" from-port="1" to-layer="1856" to-port="0" />
		<edge from-layer="1855" from-port="0" to-layer="1856" to-port="1" />
		<edge from-layer="1856" from-port="2" to-layer="1857" to-port="1" />
		<edge from-layer="1857" from-port="2" to-layer="1859" to-port="0" />
		<edge from-layer="1858" from-port="0" to-layer="1859" to-port="1" />
		<edge from-layer="1859" from-port="2" to-layer="1860" to-port="0" />
		<edge from-layer="1860" from-port="1" to-layer="1865" to-port="0" />
		<edge from-layer="1861" from-port="0" to-layer="1865" to-port="1" />
		<edge from-layer="1862" from-port="0" to-layer="1865" to-port="2" />
		<edge from-layer="1863" from-port="0" to-layer="1865" to-port="3" />
		<edge from-layer="1864" from-port="0" to-layer="1865" to-port="4" />
		<edge from-layer="1865" from-port="5" to-layer="1870" to-port="0" />
		<edge from-layer="1866" from-port="0" to-layer="1867" to-port="0" />
		<edge from-layer="1867" from-port="1" to-layer="1869" to-port="0" />
		<edge from-layer="1868" from-port="0" to-layer="1869" to-port="1" />
		<edge from-layer="1869" from-port="2" to-layer="1870" to-port="1" />
		<edge from-layer="1870" from-port="2" to-layer="1872" to-port="0" />
		<edge from-layer="1871" from-port="0" to-layer="1872" to-port="1" />
		<edge from-layer="1872" from-port="2" to-layer="1873" to-port="0" />
		<edge from-layer="1873" from-port="1" to-layer="1878" to-port="0" />
		<edge from-layer="1874" from-port="0" to-layer="1878" to-port="1" />
		<edge from-layer="1875" from-port="0" to-layer="1878" to-port="2" />
		<edge from-layer="1876" from-port="0" to-layer="1878" to-port="3" />
		<edge from-layer="1877" from-port="0" to-layer="1878" to-port="4" />
		<edge from-layer="1878" from-port="5" to-layer="1879" to-port="1" />
		<edge from-layer="1879" from-port="2" to-layer="1884" to-port="0" />
		<edge from-layer="1880" from-port="0" to-layer="1884" to-port="1" />
		<edge from-layer="1881" from-port="0" to-layer="1884" to-port="2" />
		<edge from-layer="1882" from-port="0" to-layer="1884" to-port="3" />
		<edge from-layer="1883" from-port="0" to-layer="1884" to-port="4" />
		<edge from-layer="1884" from-port="5" to-layer="1898" to-port="0" />
		<edge from-layer="1885" from-port="0" to-layer="1886" to-port="0" />
		<edge from-layer="1886" from-port="1" to-layer="1888" to-port="0" />
		<edge from-layer="1887" from-port="0" to-layer="1888" to-port="1" />
		<edge from-layer="1888" from-port="2" to-layer="1889" to-port="1" />
		<edge from-layer="1889" from-port="2" to-layer="1891" to-port="0" />
		<edge from-layer="1890" from-port="0" to-layer="1891" to-port="1" />
		<edge from-layer="1891" from-port="2" to-layer="1892" to-port="0" />
		<edge from-layer="1892" from-port="1" to-layer="1897" to-port="0" />
		<edge from-layer="1893" from-port="0" to-layer="1897" to-port="1" />
		<edge from-layer="1894" from-port="0" to-layer="1897" to-port="2" />
		<edge from-layer="1895" from-port="0" to-layer="1897" to-port="3" />
		<edge from-layer="1896" from-port="0" to-layer="1897" to-port="4" />
		<edge from-layer="1897" from-port="5" to-layer="1898" to-port="1" />
		<edge from-layer="1898" from-port="2" to-layer="1903" to-port="0" />
		<edge from-layer="1899" from-port="0" to-layer="1900" to-port="0" />
		<edge from-layer="1900" from-port="1" to-layer="1902" to-port="0" />
		<edge from-layer="1901" from-port="0" to-layer="1902" to-port="1" />
		<edge from-layer="1902" from-port="2" to-layer="1903" to-port="1" />
		<edge from-layer="1903" from-port="2" to-layer="1905" to-port="0" />
		<edge from-layer="1904" from-port="0" to-layer="1905" to-port="1" />
		<edge from-layer="1905" from-port="2" to-layer="1906" to-port="0" />
		<edge from-layer="1906" from-port="1" to-layer="1911" to-port="0" />
		<edge from-layer="1907" from-port="0" to-layer="1911" to-port="1" />
		<edge from-layer="1908" from-port="0" to-layer="1911" to-port="2" />
		<edge from-layer="1909" from-port="0" to-layer="1911" to-port="3" />
		<edge from-layer="1910" from-port="0" to-layer="1911" to-port="4" />
		<edge from-layer="1911" from-port="5" to-layer="1912" to-port="1" />
		<edge from-layer="1912" from-port="2" to-layer="1917" to-port="0" />
		<edge from-layer="1913" from-port="0" to-layer="1914" to-port="0" />
		<edge from-layer="1914" from-port="1" to-layer="1916" to-port="0" />
		<edge from-layer="1915" from-port="0" to-layer="1916" to-port="1" />
		<edge from-layer="1916" from-port="2" to-layer="1917" to-port="1" />
		<edge from-layer="1917" from-port="2" to-layer="1919" to-port="0" />
		<edge from-layer="1918" from-port="0" to-layer="1919" to-port="1" />
		<edge from-layer="1919" from-port="2" to-layer="1920" to-port="0" />
		<edge from-layer="1920" from-port="1" to-layer="1925" to-port="0" />
		<edge from-layer="1921" from-port="0" to-layer="1925" to-port="1" />
		<edge from-layer="1922" from-port="0" to-layer="1925" to-port="2" />
		<edge from-layer="1923" from-port="0" to-layer="1925" to-port="3" />
		<edge from-layer="1924" from-port="0" to-layer="1925" to-port="4" />
		<edge from-layer="1925" from-port="5" to-layer="1930" to-port="0" />
		<edge from-layer="1925" from-port="5" to-layer="1963" to-port="0" />
		<edge from-layer="1925" from-port="5" to-layer="2025" to-port="0" />
		<edge from-layer="1926" from-port="0" to-layer="1927" to-port="0" />
		<edge from-layer="1927" from-port="1" to-layer="1929" to-port="0" />
		<edge from-layer="1928" from-port="0" to-layer="1929" to-port="1" />
		<edge from-layer="1929" from-port="2" to-layer="1930" to-port="1" />
		<edge from-layer="1930" from-port="2" to-layer="1932" to-port="0" />
		<edge from-layer="1931" from-port="0" to-layer="1932" to-port="1" />
		<edge from-layer="1932" from-port="2" to-layer="1933" to-port="0" />
		<edge from-layer="1933" from-port="1" to-layer="1938" to-port="0" />
		<edge from-layer="1934" from-port="0" to-layer="1938" to-port="1" />
		<edge from-layer="1935" from-port="0" to-layer="1938" to-port="2" />
		<edge from-layer="1936" from-port="0" to-layer="1938" to-port="3" />
		<edge from-layer="1937" from-port="0" to-layer="1938" to-port="4" />
		<edge from-layer="1938" from-port="5" to-layer="1943" to-port="0" />
		<edge from-layer="1939" from-port="0" to-layer="1940" to-port="0" />
		<edge from-layer="1940" from-port="1" to-layer="1942" to-port="0" />
		<edge from-layer="1941" from-port="0" to-layer="1942" to-port="1" />
		<edge from-layer="1942" from-port="2" to-layer="1943" to-port="1" />
		<edge from-layer="1943" from-port="2" to-layer="1945" to-port="0" />
		<edge from-layer="1944" from-port="0" to-layer="1945" to-port="1" />
		<edge from-layer="1945" from-port="2" to-layer="1946" to-port="0" />
		<edge from-layer="1946" from-port="1" to-layer="1951" to-port="0" />
		<edge from-layer="1947" from-port="0" to-layer="1951" to-port="1" />
		<edge from-layer="1948" from-port="0" to-layer="1951" to-port="2" />
		<edge from-layer="1949" from-port="0" to-layer="1951" to-port="3" />
		<edge from-layer="1950" from-port="0" to-layer="1951" to-port="4" />
		<edge from-layer="1951" from-port="5" to-layer="1956" to-port="0" />
		<edge from-layer="1952" from-port="0" to-layer="1953" to-port="0" />
		<edge from-layer="1953" from-port="1" to-layer="1955" to-port="0" />
		<edge from-layer="1954" from-port="0" to-layer="1955" to-port="1" />
		<edge from-layer="1955" from-port="2" to-layer="1956" to-port="1" />
		<edge from-layer="1956" from-port="2" to-layer="1958" to-port="0" />
		<edge from-layer="1957" from-port="0" to-layer="1958" to-port="1" />
		<edge from-layer="1958" from-port="2" to-layer="2018" to-port="0" />
		<edge from-layer="1959" from-port="0" to-layer="1960" to-port="0" />
		<edge from-layer="1960" from-port="1" to-layer="1962" to-port="0" />
		<edge from-layer="1961" from-port="0" to-layer="1962" to-port="1" />
		<edge from-layer="1962" from-port="2" to-layer="1963" to-port="1" />
		<edge from-layer="1963" from-port="2" to-layer="1965" to-port="0" />
		<edge from-layer="1964" from-port="0" to-layer="1965" to-port="1" />
		<edge from-layer="1965" from-port="2" to-layer="1966" to-port="0" />
		<edge from-layer="1966" from-port="1" to-layer="1971" to-port="0" />
		<edge from-layer="1967" from-port="0" to-layer="1971" to-port="1" />
		<edge from-layer="1968" from-port="0" to-layer="1971" to-port="2" />
		<edge from-layer="1969" from-port="0" to-layer="1971" to-port="3" />
		<edge from-layer="1970" from-port="0" to-layer="1971" to-port="4" />
		<edge from-layer="1971" from-port="5" to-layer="1976" to-port="0" />
		<edge from-layer="1972" from-port="0" to-layer="1973" to-port="0" />
		<edge from-layer="1973" from-port="1" to-layer="1975" to-port="0" />
		<edge from-layer="1974" from-port="0" to-layer="1975" to-port="1" />
		<edge from-layer="1975" from-port="2" to-layer="1976" to-port="1" />
		<edge from-layer="1976" from-port="2" to-layer="1978" to-port="0" />
		<edge from-layer="1977" from-port="0" to-layer="1978" to-port="1" />
		<edge from-layer="1978" from-port="2" to-layer="1979" to-port="0" />
		<edge from-layer="1979" from-port="1" to-layer="1984" to-port="0" />
		<edge from-layer="1980" from-port="0" to-layer="1984" to-port="1" />
		<edge from-layer="1981" from-port="0" to-layer="1984" to-port="2" />
		<edge from-layer="1982" from-port="0" to-layer="1984" to-port="3" />
		<edge from-layer="1983" from-port="0" to-layer="1984" to-port="4" />
		<edge from-layer="1984" from-port="5" to-layer="1989" to-port="0" />
		<edge from-layer="1985" from-port="0" to-layer="1986" to-port="0" />
		<edge from-layer="1986" from-port="1" to-layer="1988" to-port="0" />
		<edge from-layer="1987" from-port="0" to-layer="1988" to-port="1" />
		<edge from-layer="1988" from-port="2" to-layer="1989" to-port="1" />
		<edge from-layer="1989" from-port="2" to-layer="1991" to-port="0" />
		<edge from-layer="1990" from-port="0" to-layer="1991" to-port="1" />
		<edge from-layer="1991" from-port="2" to-layer="1992" to-port="0" />
		<edge from-layer="1992" from-port="1" to-layer="1997" to-port="0" />
		<edge from-layer="1993" from-port="0" to-layer="1997" to-port="1" />
		<edge from-layer="1994" from-port="0" to-layer="1997" to-port="2" />
		<edge from-layer="1995" from-port="0" to-layer="1997" to-port="3" />
		<edge from-layer="1996" from-port="0" to-layer="1997" to-port="4" />
		<edge from-layer="1997" from-port="5" to-layer="2002" to-port="0" />
		<edge from-layer="1998" from-port="0" to-layer="1999" to-port="0" />
		<edge from-layer="1999" from-port="1" to-layer="2001" to-port="0" />
		<edge from-layer="2000" from-port="0" to-layer="2001" to-port="1" />
		<edge from-layer="2001" from-port="2" to-layer="2002" to-port="1" />
		<edge from-layer="2002" from-port="2" to-layer="2004" to-port="0" />
		<edge from-layer="2003" from-port="0" to-layer="2004" to-port="1" />
		<edge from-layer="2004" from-port="2" to-layer="2005" to-port="0" />
		<edge from-layer="2005" from-port="1" to-layer="2010" to-port="0" />
		<edge from-layer="2006" from-port="0" to-layer="2010" to-port="1" />
		<edge from-layer="2007" from-port="0" to-layer="2010" to-port="2" />
		<edge from-layer="2008" from-port="0" to-layer="2010" to-port="3" />
		<edge from-layer="2009" from-port="0" to-layer="2010" to-port="4" />
		<edge from-layer="2010" from-port="5" to-layer="2015" to-port="0" />
		<edge from-layer="2011" from-port="0" to-layer="2012" to-port="0" />
		<edge from-layer="2012" from-port="1" to-layer="2014" to-port="0" />
		<edge from-layer="2013" from-port="0" to-layer="2014" to-port="1" />
		<edge from-layer="2014" from-port="2" to-layer="2015" to-port="1" />
		<edge from-layer="2015" from-port="2" to-layer="2017" to-port="0" />
		<edge from-layer="2016" from-port="0" to-layer="2017" to-port="1" />
		<edge from-layer="2017" from-port="2" to-layer="2018" to-port="1" />
		<edge from-layer="2018" from-port="2" to-layer="2020" to-port="0" />
		<edge from-layer="2019" from-port="0" to-layer="2020" to-port="1" />
		<edge from-layer="2020" from-port="2" to-layer="2264" to-port="1" />
		<edge from-layer="2021" from-port="0" to-layer="2022" to-port="0" />
		<edge from-layer="2022" from-port="1" to-layer="2024" to-port="0" />
		<edge from-layer="2023" from-port="0" to-layer="2024" to-port="1" />
		<edge from-layer="2024" from-port="2" to-layer="2025" to-port="1" />
		<edge from-layer="2025" from-port="2" to-layer="2027" to-port="0" />
		<edge from-layer="2026" from-port="0" to-layer="2027" to-port="1" />
		<edge from-layer="2027" from-port="2" to-layer="2028" to-port="0" />
		<edge from-layer="2028" from-port="1" to-layer="2033" to-port="0" />
		<edge from-layer="2029" from-port="0" to-layer="2033" to-port="1" />
		<edge from-layer="2030" from-port="0" to-layer="2033" to-port="2" />
		<edge from-layer="2031" from-port="0" to-layer="2033" to-port="3" />
		<edge from-layer="2032" from-port="0" to-layer="2033" to-port="4" />
		<edge from-layer="2033" from-port="5" to-layer="2034" to-port="0" />
		<edge from-layer="2034" from-port="2" to-layer="2039" to-port="0" />
		<edge from-layer="2035" from-port="0" to-layer="2036" to-port="0" />
		<edge from-layer="2036" from-port="1" to-layer="2038" to-port="0" />
		<edge from-layer="2037" from-port="0" to-layer="2038" to-port="1" />
		<edge from-layer="2038" from-port="2" to-layer="2039" to-port="1" />
		<edge from-layer="2039" from-port="2" to-layer="2041" to-port="0" />
		<edge from-layer="2040" from-port="0" to-layer="2041" to-port="1" />
		<edge from-layer="2041" from-port="2" to-layer="2042" to-port="0" />
		<edge from-layer="2042" from-port="1" to-layer="2047" to-port="0" />
		<edge from-layer="2043" from-port="0" to-layer="2047" to-port="1" />
		<edge from-layer="2044" from-port="0" to-layer="2047" to-port="2" />
		<edge from-layer="2045" from-port="0" to-layer="2047" to-port="3" />
		<edge from-layer="2046" from-port="0" to-layer="2047" to-port="4" />
		<edge from-layer="2047" from-port="5" to-layer="2050" to-port="0" />
		<edge from-layer="2048" from-port="0" to-layer="2050" to-port="1" />
		<edge from-layer="2049" from-port="0" to-layer="2050" to-port="2" />
		<edge from-layer="2050" from-port="4" to-layer="2055" to-port="0" />
		<edge from-layer="2050" from-port="3" to-layer="2155" to-port="0" />
		<edge from-layer="2050" from-port="4" to-layer="2155" to-port="1" />
		<edge from-layer="2050" from-port="4" to-layer="2132" to-port="0" />
		<edge from-layer="2051" from-port="0" to-layer="2052" to-port="0" />
		<edge from-layer="2052" from-port="1" to-layer="2054" to-port="0" />
		<edge from-layer="2053" from-port="0" to-layer="2054" to-port="1" />
		<edge from-layer="2054" from-port="2" to-layer="2055" to-port="1" />
		<edge from-layer="2055" from-port="2" to-layer="2057" to-port="0" />
		<edge from-layer="2056" from-port="0" to-layer="2057" to-port="1" />
		<edge from-layer="2057" from-port="2" to-layer="2058" to-port="0" />
		<edge from-layer="2058" from-port="1" to-layer="2063" to-port="0" />
		<edge from-layer="2059" from-port="0" to-layer="2063" to-port="1" />
		<edge from-layer="2060" from-port="0" to-layer="2063" to-port="2" />
		<edge from-layer="2061" from-port="0" to-layer="2063" to-port="3" />
		<edge from-layer="2062" from-port="0" to-layer="2063" to-port="4" />
		<edge from-layer="2063" from-port="5" to-layer="2068" to-port="0" />
		<edge from-layer="2063" from-port="5" to-layer="2090" to-port="0" />
		<edge from-layer="2064" from-port="0" to-layer="2065" to-port="0" />
		<edge from-layer="2065" from-port="1" to-layer="2067" to-port="0" />
		<edge from-layer="2066" from-port="0" to-layer="2067" to-port="1" />
		<edge from-layer="2067" from-port="2" to-layer="2068" to-port="1" />
		<edge from-layer="2068" from-port="2" to-layer="2070" to-port="0" />
		<edge from-layer="2069" from-port="0" to-layer="2070" to-port="1" />
		<edge from-layer="2070" from-port="2" to-layer="2071" to-port="0" />
		<edge from-layer="2071" from-port="1" to-layer="2076" to-port="0" />
		<edge from-layer="2072" from-port="0" to-layer="2076" to-port="1" />
		<edge from-layer="2073" from-port="0" to-layer="2076" to-port="2" />
		<edge from-layer="2074" from-port="0" to-layer="2076" to-port="3" />
		<edge from-layer="2075" from-port="0" to-layer="2076" to-port="4" />
		<edge from-layer="2076" from-port="5" to-layer="2081" to-port="0" />
		<edge from-layer="2077" from-port="0" to-layer="2078" to-port="0" />
		<edge from-layer="2078" from-port="1" to-layer="2080" to-port="0" />
		<edge from-layer="2079" from-port="0" to-layer="2080" to-port="1" />
		<edge from-layer="2080" from-port="2" to-layer="2081" to-port="1" />
		<edge from-layer="2081" from-port="2" to-layer="2083" to-port="0" />
		<edge from-layer="2082" from-port="0" to-layer="2083" to-port="1" />
		<edge from-layer="2083" from-port="2" to-layer="2084" to-port="0" />
		<edge from-layer="2084" from-port="1" to-layer="2089" to-port="0" />
		<edge from-layer="2085" from-port="0" to-layer="2089" to-port="1" />
		<edge from-layer="2086" from-port="0" to-layer="2089" to-port="2" />
		<edge from-layer="2087" from-port="0" to-layer="2089" to-port="3" />
		<edge from-layer="2088" from-port="0" to-layer="2089" to-port="4" />
		<edge from-layer="2089" from-port="5" to-layer="2090" to-port="1" />
		<edge from-layer="2090" from-port="2" to-layer="2095" to-port="0" />
		<edge from-layer="2091" from-port="0" to-layer="2095" to-port="1" />
		<edge from-layer="2092" from-port="0" to-layer="2095" to-port="2" />
		<edge from-layer="2093" from-port="0" to-layer="2095" to-port="3" />
		<edge from-layer="2094" from-port="0" to-layer="2095" to-port="4" />
		<edge from-layer="2095" from-port="5" to-layer="2100" to-port="0" />
		<edge from-layer="2095" from-port="5" to-layer="2122" to-port="0" />
		<edge from-layer="2096" from-port="0" to-layer="2097" to-port="0" />
		<edge from-layer="2097" from-port="1" to-layer="2099" to-port="0" />
		<edge from-layer="2098" from-port="0" to-layer="2099" to-port="1" />
		<edge from-layer="2099" from-port="2" to-layer="2100" to-port="1" />
		<edge from-layer="2100" from-port="2" to-layer="2102" to-port="0" />
		<edge from-layer="2101" from-port="0" to-layer="2102" to-port="1" />
		<edge from-layer="2102" from-port="2" to-layer="2103" to-port="0" />
		<edge from-layer="2103" from-port="1" to-layer="2108" to-port="0" />
		<edge from-layer="2104" from-port="0" to-layer="2108" to-port="1" />
		<edge from-layer="2105" from-port="0" to-layer="2108" to-port="2" />
		<edge from-layer="2106" from-port="0" to-layer="2108" to-port="3" />
		<edge from-layer="2107" from-port="0" to-layer="2108" to-port="4" />
		<edge from-layer="2108" from-port="5" to-layer="2113" to-port="0" />
		<edge from-layer="2109" from-port="0" to-layer="2110" to-port="0" />
		<edge from-layer="2110" from-port="1" to-layer="2112" to-port="0" />
		<edge from-layer="2111" from-port="0" to-layer="2112" to-port="1" />
		<edge from-layer="2112" from-port="2" to-layer="2113" to-port="1" />
		<edge from-layer="2113" from-port="2" to-layer="2115" to-port="0" />
		<edge from-layer="2114" from-port="0" to-layer="2115" to-port="1" />
		<edge from-layer="2115" from-port="2" to-layer="2116" to-port="0" />
		<edge from-layer="2116" from-port="1" to-layer="2121" to-port="0" />
		<edge from-layer="2117" from-port="0" to-layer="2121" to-port="1" />
		<edge from-layer="2118" from-port="0" to-layer="2121" to-port="2" />
		<edge from-layer="2119" from-port="0" to-layer="2121" to-port="3" />
		<edge from-layer="2120" from-port="0" to-layer="2121" to-port="4" />
		<edge from-layer="2121" from-port="5" to-layer="2122" to-port="1" />
		<edge from-layer="2122" from-port="2" to-layer="2127" to-port="0" />
		<edge from-layer="2123" from-port="0" to-layer="2127" to-port="1" />
		<edge from-layer="2124" from-port="0" to-layer="2127" to-port="2" />
		<edge from-layer="2125" from-port="0" to-layer="2127" to-port="3" />
		<edge from-layer="2126" from-port="0" to-layer="2127" to-port="4" />
		<edge from-layer="2127" from-port="5" to-layer="2141" to-port="0" />
		<edge from-layer="2128" from-port="0" to-layer="2129" to-port="0" />
		<edge from-layer="2129" from-port="1" to-layer="2131" to-port="0" />
		<edge from-layer="2130" from-port="0" to-layer="2131" to-port="1" />
		<edge from-layer="2131" from-port="2" to-layer="2132" to-port="1" />
		<edge from-layer="2132" from-port="2" to-layer="2134" to-port="0" />
		<edge from-layer="2133" from-port="0" to-layer="2134" to-port="1" />
		<edge from-layer="2134" from-port="2" to-layer="2135" to-port="0" />
		<edge from-layer="2135" from-port="1" to-layer="2140" to-port="0" />
		<edge from-layer="2136" from-port="0" to-layer="2140" to-port="1" />
		<edge from-layer="2137" from-port="0" to-layer="2140" to-port="2" />
		<edge from-layer="2138" from-port="0" to-layer="2140" to-port="3" />
		<edge from-layer="2139" from-port="0" to-layer="2140" to-port="4" />
		<edge from-layer="2140" from-port="5" to-layer="2141" to-port="1" />
		<edge from-layer="2141" from-port="2" to-layer="2146" to-port="0" />
		<edge from-layer="2142" from-port="0" to-layer="2143" to-port="0" />
		<edge from-layer="2143" from-port="1" to-layer="2145" to-port="0" />
		<edge from-layer="2144" from-port="0" to-layer="2145" to-port="1" />
		<edge from-layer="2145" from-port="2" to-layer="2146" to-port="1" />
		<edge from-layer="2146" from-port="2" to-layer="2148" to-port="0" />
		<edge from-layer="2147" from-port="0" to-layer="2148" to-port="1" />
		<edge from-layer="2148" from-port="2" to-layer="2149" to-port="0" />
		<edge from-layer="2149" from-port="1" to-layer="2154" to-port="0" />
		<edge from-layer="2150" from-port="0" to-layer="2154" to-port="1" />
		<edge from-layer="2151" from-port="0" to-layer="2154" to-port="2" />
		<edge from-layer="2152" from-port="0" to-layer="2154" to-port="3" />
		<edge from-layer="2153" from-port="0" to-layer="2154" to-port="4" />
		<edge from-layer="2154" from-port="5" to-layer="2155" to-port="2" />
		<edge from-layer="2155" from-port="3" to-layer="2160" to-port="0" />
		<edge from-layer="2156" from-port="0" to-layer="2157" to-port="0" />
		<edge from-layer="2157" from-port="1" to-layer="2159" to-port="0" />
		<edge from-layer="2158" from-port="0" to-layer="2159" to-port="1" />
		<edge from-layer="2159" from-port="2" to-layer="2160" to-port="1" />
		<edge from-layer="2160" from-port="2" to-layer="2162" to-port="0" />
		<edge from-layer="2161" from-port="0" to-layer="2162" to-port="1" />
		<edge from-layer="2162" from-port="2" to-layer="2163" to-port="0" />
		<edge from-layer="2163" from-port="1" to-layer="2168" to-port="0" />
		<edge from-layer="2164" from-port="0" to-layer="2168" to-port="1" />
		<edge from-layer="2165" from-port="0" to-layer="2168" to-port="2" />
		<edge from-layer="2166" from-port="0" to-layer="2168" to-port="3" />
		<edge from-layer="2167" from-port="0" to-layer="2168" to-port="4" />
		<edge from-layer="2168" from-port="5" to-layer="2173" to-port="0" />
		<edge from-layer="2168" from-port="5" to-layer="2206" to-port="0" />
		<edge from-layer="2169" from-port="0" to-layer="2170" to-port="0" />
		<edge from-layer="2170" from-port="1" to-layer="2172" to-port="0" />
		<edge from-layer="2171" from-port="0" to-layer="2172" to-port="1" />
		<edge from-layer="2172" from-port="2" to-layer="2173" to-port="1" />
		<edge from-layer="2173" from-port="2" to-layer="2175" to-port="0" />
		<edge from-layer="2174" from-port="0" to-layer="2175" to-port="1" />
		<edge from-layer="2175" from-port="2" to-layer="2176" to-port="0" />
		<edge from-layer="2176" from-port="1" to-layer="2181" to-port="0" />
		<edge from-layer="2177" from-port="0" to-layer="2181" to-port="1" />
		<edge from-layer="2178" from-port="0" to-layer="2181" to-port="2" />
		<edge from-layer="2179" from-port="0" to-layer="2181" to-port="3" />
		<edge from-layer="2180" from-port="0" to-layer="2181" to-port="4" />
		<edge from-layer="2181" from-port="5" to-layer="2186" to-port="0" />
		<edge from-layer="2182" from-port="0" to-layer="2183" to-port="0" />
		<edge from-layer="2183" from-port="1" to-layer="2185" to-port="0" />
		<edge from-layer="2184" from-port="0" to-layer="2185" to-port="1" />
		<edge from-layer="2185" from-port="2" to-layer="2186" to-port="1" />
		<edge from-layer="2186" from-port="2" to-layer="2188" to-port="0" />
		<edge from-layer="2187" from-port="0" to-layer="2188" to-port="1" />
		<edge from-layer="2188" from-port="2" to-layer="2189" to-port="0" />
		<edge from-layer="2189" from-port="1" to-layer="2194" to-port="0" />
		<edge from-layer="2190" from-port="0" to-layer="2194" to-port="1" />
		<edge from-layer="2191" from-port="0" to-layer="2194" to-port="2" />
		<edge from-layer="2192" from-port="0" to-layer="2194" to-port="3" />
		<edge from-layer="2193" from-port="0" to-layer="2194" to-port="4" />
		<edge from-layer="2194" from-port="5" to-layer="2199" to-port="0" />
		<edge from-layer="2195" from-port="0" to-layer="2196" to-port="0" />
		<edge from-layer="2196" from-port="1" to-layer="2198" to-port="0" />
		<edge from-layer="2197" from-port="0" to-layer="2198" to-port="1" />
		<edge from-layer="2198" from-port="2" to-layer="2199" to-port="1" />
		<edge from-layer="2199" from-port="2" to-layer="2201" to-port="0" />
		<edge from-layer="2200" from-port="0" to-layer="2201" to-port="1" />
		<edge from-layer="2201" from-port="2" to-layer="2261" to-port="0" />
		<edge from-layer="2202" from-port="0" to-layer="2203" to-port="0" />
		<edge from-layer="2203" from-port="1" to-layer="2205" to-port="0" />
		<edge from-layer="2204" from-port="0" to-layer="2205" to-port="1" />
		<edge from-layer="2205" from-port="2" to-layer="2206" to-port="1" />
		<edge from-layer="2206" from-port="2" to-layer="2208" to-port="0" />
		<edge from-layer="2207" from-port="0" to-layer="2208" to-port="1" />
		<edge from-layer="2208" from-port="2" to-layer="2209" to-port="0" />
		<edge from-layer="2209" from-port="1" to-layer="2214" to-port="0" />
		<edge from-layer="2210" from-port="0" to-layer="2214" to-port="1" />
		<edge from-layer="2211" from-port="0" to-layer="2214" to-port="2" />
		<edge from-layer="2212" from-port="0" to-layer="2214" to-port="3" />
		<edge from-layer="2213" from-port="0" to-layer="2214" to-port="4" />
		<edge from-layer="2214" from-port="5" to-layer="2219" to-port="0" />
		<edge from-layer="2215" from-port="0" to-layer="2216" to-port="0" />
		<edge from-layer="2216" from-port="1" to-layer="2218" to-port="0" />
		<edge from-layer="2217" from-port="0" to-layer="2218" to-port="1" />
		<edge from-layer="2218" from-port="2" to-layer="2219" to-port="1" />
		<edge from-layer="2219" from-port="2" to-layer="2221" to-port="0" />
		<edge from-layer="2220" from-port="0" to-layer="2221" to-port="1" />
		<edge from-layer="2221" from-port="2" to-layer="2222" to-port="0" />
		<edge from-layer="2222" from-port="1" to-layer="2227" to-port="0" />
		<edge from-layer="2223" from-port="0" to-layer="2227" to-port="1" />
		<edge from-layer="2224" from-port="0" to-layer="2227" to-port="2" />
		<edge from-layer="2225" from-port="0" to-layer="2227" to-port="3" />
		<edge from-layer="2226" from-port="0" to-layer="2227" to-port="4" />
		<edge from-layer="2227" from-port="5" to-layer="2232" to-port="0" />
		<edge from-layer="2228" from-port="0" to-layer="2229" to-port="0" />
		<edge from-layer="2229" from-port="1" to-layer="2231" to-port="0" />
		<edge from-layer="2230" from-port="0" to-layer="2231" to-port="1" />
		<edge from-layer="2231" from-port="2" to-layer="2232" to-port="1" />
		<edge from-layer="2232" from-port="2" to-layer="2234" to-port="0" />
		<edge from-layer="2233" from-port="0" to-layer="2234" to-port="1" />
		<edge from-layer="2234" from-port="2" to-layer="2235" to-port="0" />
		<edge from-layer="2235" from-port="1" to-layer="2240" to-port="0" />
		<edge from-layer="2236" from-port="0" to-layer="2240" to-port="1" />
		<edge from-layer="2237" from-port="0" to-layer="2240" to-port="2" />
		<edge from-layer="2238" from-port="0" to-layer="2240" to-port="3" />
		<edge from-layer="2239" from-port="0" to-layer="2240" to-port="4" />
		<edge from-layer="2240" from-port="5" to-layer="2245" to-port="0" />
		<edge from-layer="2241" from-port="0" to-layer="2242" to-port="0" />
		<edge from-layer="2242" from-port="1" to-layer="2244" to-port="0" />
		<edge from-layer="2243" from-port="0" to-layer="2244" to-port="1" />
		<edge from-layer="2244" from-port="2" to-layer="2245" to-port="1" />
		<edge from-layer="2245" from-port="2" to-layer="2247" to-port="0" />
		<edge from-layer="2246" from-port="0" to-layer="2247" to-port="1" />
		<edge from-layer="2247" from-port="2" to-layer="2248" to-port="0" />
		<edge from-layer="2248" from-port="1" to-layer="2253" to-port="0" />
		<edge from-layer="2249" from-port="0" to-layer="2253" to-port="1" />
		<edge from-layer="2250" from-port="0" to-layer="2253" to-port="2" />
		<edge from-layer="2251" from-port="0" to-layer="2253" to-port="3" />
		<edge from-layer="2252" from-port="0" to-layer="2253" to-port="4" />
		<edge from-layer="2253" from-port="5" to-layer="2258" to-port="0" />
		<edge from-layer="2254" from-port="0" to-layer="2255" to-port="0" />
		<edge from-layer="2255" from-port="1" to-layer="2257" to-port="0" />
		<edge from-layer="2256" from-port="0" to-layer="2257" to-port="1" />
		<edge from-layer="2257" from-port="2" to-layer="2258" to-port="1" />
		<edge from-layer="2258" from-port="2" to-layer="2260" to-port="0" />
		<edge from-layer="2259" from-port="0" to-layer="2260" to-port="1" />
		<edge from-layer="2260" from-port="2" to-layer="2261" to-port="1" />
		<edge from-layer="2261" from-port="2" to-layer="2263" to-port="0" />
		<edge from-layer="2262" from-port="0" to-layer="2263" to-port="1" />
		<edge from-layer="2263" from-port="2" to-layer="2264" to-port="2" />
		<edge from-layer="2264" from-port="3" to-layer="2267" to-port="0" />
		<edge from-layer="2265" from-port="0" to-layer="2267" to-port="1" />
		<edge from-layer="2265" from-port="0" to-layer="2279" to-port="1" />
		<edge from-layer="2265" from-port="0" to-layer="2288" to-port="1" />
		<edge from-layer="2266" from-port="0" to-layer="2267" to-port="2" />
		<edge from-layer="2267" from-port="3" to-layer="2269" to-port="0" />
		<edge from-layer="2267" from-port="4" to-layer="2298" to-port="0" />
		<edge from-layer="2268" from-port="0" to-layer="2269" to-port="1" />
		<edge from-layer="2269" from-port="2" to-layer="2271" to-port="0" />
		<edge from-layer="2270" from-port="0" to-layer="2271" to-port="1" />
		<edge from-layer="2271" from-port="2" to-layer="2272" to-port="0" />
		<edge from-layer="2272" from-port="1" to-layer="2274" to-port="0" />
		<edge from-layer="2273" from-port="0" to-layer="2274" to-port="1" />
		<edge from-layer="2274" from-port="2" to-layer="2276" to-port="0" />
		<edge from-layer="2275" from-port="0" to-layer="2276" to-port="1" />
		<edge from-layer="2276" from-port="2" to-layer="2288" to-port="0" />
		<edge from-layer="2276" from-port="2" to-layer="2277" to-port="0" />
		<edge from-layer="2277" from-port="1" to-layer="2279" to-port="0" />
		<edge from-layer="2278" from-port="0" to-layer="2279" to-port="2" />
		<edge from-layer="2278" from-port="0" to-layer="2283" to-port="1" />
		<edge from-layer="2279" from-port="3" to-layer="2281" to-port="0" />
		<edge from-layer="2279" from-port="3" to-layer="2282" to-port="0" />
		<edge from-layer="2280" from-port="0" to-layer="2281" to-port="1" />
		<edge from-layer="2280" from-port="0" to-layer="2282" to-port="1" />
		<edge from-layer="2281" from-port="2" to-layer="2285" to-port="0" />
		<edge from-layer="2282" from-port="2" to-layer="2283" to-port="0" />
		<edge from-layer="2283" from-port="2" to-layer="2284" to-port="0" />
		<edge from-layer="2284" from-port="1" to-layer="2285" to-port="1" />
		<edge from-layer="2285" from-port="2" to-layer="2287" to-port="0" />
		<edge from-layer="2286" from-port="0" to-layer="2287" to-port="1" />
		<edge from-layer="2287" from-port="2" to-layer="2288" to-port="2" />
		<edge from-layer="2288" from-port="4" to-layer="2290" to-port="1" />
		<edge from-layer="2288" from-port="3" to-layer="2289" to-port="1" />
		<edge from-layer="2289" from-port="2" to-layer="2294" to-port="1" />
		<edge from-layer="2289" from-port="2" to-layer="2291" to-port="0" />
		<edge from-layer="2290" from-port="2" to-layer="2291" to-port="1" />
		<edge from-layer="2290" from-port="2" to-layer="2294" to-port="0" />
		<edge from-layer="2291" from-port="2" to-layer="2293" to-port="0" />
		<edge from-layer="2292" from-port="0" to-layer="2293" to-port="1" />
		<edge from-layer="2293" from-port="2" to-layer="2295" to-port="0" />
		<edge from-layer="2294" from-port="2" to-layer="2295" to-port="1" />
		<edge from-layer="2295" from-port="2" to-layer="2297" to-port="0" />
		<edge from-layer="2296" from-port="0" to-layer="2297" to-port="1" />
		<edge from-layer="2297" from-port="2" to-layer="2299" to-port="0" />
		<edge from-layer="2298" from-port="1" to-layer="2299" to-port="1" />
		<edge from-layer="2299" from-port="2" to-layer="2300" to-port="0" />
	</edges>
	<rt_info>
		<Runtime_version value="2024.4.0-16579-c3152d32c9c-releases/2024/4" />
		<conversion_parameters>
			<framework value="pytorch" />
			<is_python_object value="True" />
		</conversion_parameters>
		<model_info>
			<iou_threshold value="0.7" />
			<labels value="bridge car pillbox tank tent" />
			<model_type value="YOLOv8" />
			<pad_value value="114" />
			<resize_type value="fit_to_window_letterbox" />
			<reverse_input_channels value="YES" />
			<scale_values value="255" />
		</model_info>
		<nncf>
			<friendly_names_were_updated value="True" />
			<quantization>
				<advanced_parameters value="{}" />
				<fast_bias_correction value="True" />
				<ignored_scope>
					<patterns value="['.*model.21/.*/Add', '.*model.21/.*/Sub*', '.*model.21/.*/Mul*', '.*model.21/.*/Div*', '.*model.21\\.dfl.*']" />
					<types value="['Sigmoid']" />
				</ignored_scope>
				<model_type value="None" />
				<preset value="mixed" />
				<subset_size value="300" />
				<target_device value="ANY" />
			</quantization>
		</nncf>
	</rt_info>
</net>
